27_ai/闲鱼xhs/ai有温度/code01_BBPE等9个文件/code02_PPO/save_model/v_head/pytorch_model.bin (torch, 4828 bytes, 1 tensors)

weight f4 [1, 896]
0.010633617 -0.01964221 -0.0105360495 0.002853101 0.027850032 -0.014089526 -0.023638723 -0.028465854
0.031067045 -0.015642777 -0.001631014 0.018112263 -0.02609129 0.0066589755 -0.03039773 -0.005722562
-0.025104897 -0.03131856 -0.010666831 0.0043457467 0.006534212 -0.0037339348 -0.012990566 -0.0072119264
-0.032431178 -0.03032529 -0.014744253 0.02323514 0.029294737 0.025492402 0.010011932 -0.009042989
-0.020926809 -0.02606627 -0.0056256037 -0.014687972 -0.009126502 0.01236984 0.02875657 0.001786734
-0.022469603 0.015634684 -0.011805321 -0.02253203 0.03060902 -0.012367678 0.015824331 -0.0031399764
-0.030446002 0.017165646 -0.0010381349 -0.01567531 -0.00969751 -0.012948371 0.024174966 0.028334666
-0.0015261428 0.012697573 0.010049435 -0.002125422 -0.02654824 0.015257828 0.010131427 -0.020446476
-0.013349047 0.013244856 0.032043032 -0.021922516 -0.007096103 0.028482553 -0.02212931 0.00071893336
-0.020151041 -0.0032236886 0.009604251 0.021257512 0.01223937 -0.016806297 0.023639819 0.031799268
0.021342775 0.007394046 0.0031044884 0.010914969 -0.010272129 -0.018130666 0.025403274 -0.032361712
0.02783006 0.009256444 -0.027657172 -0.018156346 -0.004472215 -0.025257127 0.022315277 -0.012069365
-0.012095904 0.013740646 0.028160337 -0.015794398 -0.031723708 0.008746591 0.011046698 0.00944584
-0.004288765 -0.0055726524 -0.02669809 -0.00267893 0.0017049572 -0.0035275775 0.013685719 0.024619589
-0.019392665 0.0003567725 -0.008602588 -0.004325874 0.016347222 -0.0074526286 -0.008592082 0.0015506113
-0.028794177 0.002245351 -0.0063244216 -0.0032169104 -0.010353997 0.012836052 -0.013375415 0.03295123
0.017869128 0.017995644 0.018658938 -0.023923917 0.0160891 0.0045131594 0.012320844 0.0057647205
-0.032114588 0.023969827 0.0035650926 0.010139452 0.02410816 -0.025787765 0.0007862416 0.031643473
-0.027056422 0.009836013 -0.009437707 -0.011703154 0.030340005 -0.019555718 0.019824987 0.023393579
0.0015240839 -0.021639151 -0.005291273 0.017884778 0.004904707 -0.030879095 -0.0031581286 0.030111575
-0.024390021 -0.030110197 -0.023788147 -0.0066009345 0.022416273 -0.020019181 0.022788195 -0.006753568
0.029134914 -0.01333719 -0.00612221 0.029161677 -0.026169902 -0.0058375127 0.0015232397 -0.0009972187
-0.007090022 -0.027913932 -0.02430173 -0.006045017 -0.0014622555 -0.03181338 0.022414401 -0.032253437
-0.008956414 -0.00022454944 0.021248445 -0.010363316 -0.02706638 -0.014525231 0.0066111814 -0.03162671
-0.004464772 -0.013973503 0.025439372 -0.018907681 0.01825596 -0.023957156 0.00043637876 -0.006756455
0.0058174487 0.011865644 0.024259368 0.0023644876 -0.021159623 -0.002722885 0.014725256 0.016817639
-0.023124067 0.028341968 -0.011081035 0.008082832 -0.029568693 0.012483931 0.030615788 -0.0062109283
-0.021130247 0.003425932 -0.029099332 0.010413452 -0.0076169907 -0.024738267 0.028719887 -0.0036169288
-0.01017729 -0.0016727706 -0.030179122 -0.004238932 -0.016887872 0.027760036 0.00044114582 0.016645906
-0.0034498072 -0.026289409 -0.027600544 0.022209626 -0.017461868 -0.013335932 -0.018478729 -0.031722616
0.00424211 0.019367365 0.004494637 -0.0045165443 -0.013526419 -0.008228133 -0.0100296065 0.014044861
0.007658548 0.015865175 0.0016145584 0.028553175 0.03296262 0.007305993 -0.012961979 0.009753898
00000000: 9f38 2e3c b3e8 a0bc 659f 2cbc 17fb 3a3b
00000010: c025 e43c c1d7 66bc ffa5 c1bc 3931 e9bc
00000020: 5180 fe3c 4825 80bc c0c7 d5ba 2b60 943c
00000030: 67bd d5bc 8933 da3b a904 f9bc 5484 bbbb
00000040: c9a8 cdbc e447 00bd efc3 2ebc c466 8e3b
00000050: f11c d63b 08b5 74bb 62d6 54bc 0652 ecbb
00000060: 8ed6 04bd be6c f8bc e191 71bc 9f57 be3c
00000070: 84fb ef3c 71d5 d03c 1609 243c 0c29 14bc
00000080: b36e abbc ee88 d5bc fc56 b8bb d2a5 70bc
00000090: 5387 15bc dfaa 4a3c e692 eb3c d830 ea3a
000000a0: 2c12 b8bc 4f14 803c 1b6b 41bc 1795 b8bc
000000b0: c4bf fa3c cda1 4abc 07a2 813c 10c8 4dbb
000000c0: e569 f9bc f89e 8c3c 0712 88ba 8269 80bc
000000d0: 4ee2 1ebc 6725 54bc 940a c63c 1a1e e83c
000000e0: db08 c8ba 7b09 503c 63a6 243c aa4a 0bbb
000000f0: b27b d9bc f8fb 793c 49fe 253c 5e7f a7bc
00000100: f6b5 5abc f400 593c 8e3f 033d d996 b3bc
00000110: 6d86 e8bb 3e54 e93c 8748 b5bc cd76 3c3a
00000120: cc13 a5bc 8544 53bb 265b 1d3c 3c24 ae3c
00000130: a387 483c 5cad 89bc 4ba8 c13c f33f 023d
00000140: 0bd7 ae3c c149 f23b ac74 4b3b b3d4 323c
00000150: 6f4c 28bc c386 94bc 871a d03c b78d 04bd
00000160: defb e33c 57a8 173c 4b91 e2bc 9ebc 94bc
00000170: a98b 92bb 09e8 cebc 87ce b63c 96be 45bc
00000180: e62d 46bc 7220 613c 82b0 e63c 4163 81bc
00000190: b8f0 01bd dd4d 0f3c 36fd 343c b9c2 1a3c
000001a0: c588 8cbb cc9a b6bb f4b5 dabc fd90 2fbb
000001b0: df78 df3a ee2e 67bb 113a 603c 05af c93c
000001c0: 5edd 9ebc 320d bb39 dff1 0cbc 10c0 8dbb
000001d0: 9cea 853c 2e35 f4bb cec5 0cbc e23d cb3a
000001e0: c4e1 ebbc bd26 133b 183d cfbb cdd2 52bb
000001f0: d0a3 29bc 4e4e 523c 8e24 5bbc def7 063d
00000200: 4762 923c 9a6b 933c a1da 983c 17fc c3bc
00000210: 4acd 833c 20e3 933b 5edd 493c fbe5 bc3b
00000220: 968a 03bd 5f5c c43c 54a4 693b f21f 263c
00000230: 7a7e c53c dd40 d3bc c81b 4e3a 969c 013d
00000240: 6ea5 ddbc 3b27 213c 9da0 1abc 96be 3fbc
00000250: 9a8b f83c 5033 a0bc 0368 a23c e4a3 bf3c
00000260: c5c3 c73a 9744 b1bc 6a62 adbb 1983 923c
00000270: aab7 a03b 28f6 fcbc 9bf8 4ebb 8dac f63c
00000280: 95cd c7bc a9a9 f6bc 5cdf c2bc a74c d8bb
00000290: 55a2 b73c 44ff a3bc 4fae ba3c 094d ddbb
000002a0: 58ac ee3c 3b84 5abc d29c c8bb 78e4 ee3c
000002b0: 4362 d6bc 9b48 bfbb 71a7 c73a 1bb5 82ba
000002c0: 6a53 e8bb c2ab e4bc 6c14 c7bc 4715 c6bb
000002d0: 27a9 bfba bf4e 02bd 689e b73c 2e1c 04bd
000002e0: ecbd 12bc 0875 6bb9 3811 ae3c e6ca 29bc
000002f0: 50ba ddbc 3cfb 6dbc 9ca2 d83b 028b 01bd
00000300: 394d 92bb 1ff1 64bc 3b66 d03c 48e4 9abc
00000310: 868d 953c cc41 c4bc c4c9 e439 4165 ddbb
00000320: 4ca0 be3b 1e68 423c 95bb c63c 85f5 1a3b
00000330: f256 adbc 6e72 32bb 3342 713c 25c5 893c
00000340: af6e bdbc 6a2d e83c 3b8d 35bc db6d 043c
00000350: 0b3a f2bc 6789 4c3c f6cd fa3c 0b85 cbbb
00000360: 5719 adbc 9a85 603b b961 eebc 2f9d 2a3c
00000370: f397 f9bb e8a7 cabc f845 eb3c ff09 6dbb
00000380: a6be 26bc de40 dbba 353a f7bc bde6 8abb
00000390: 6f58 8abc 0469 e33c 9749 e739 ff5c 883c
000003a0: 2916 62bb e35c d7bc 891a e2bc f6f0 b53c
000003b0: 310c 8fbc f47e 5abc b460 97bc 93ef 01bd
000003c0: 6601 8b3b 4fa8 9e3c bf47 933b 85ff 93bb
000003d0: ea9d 5dbc 4bcf 06bc 3853 24bc 6b1c 663c
000003e0: 8ff4 fa3b aff7 813c 979f d33a 59e8 e93c
000003f0: d003 073d 1c67 ef3b 7b5e 54bc d0ce 1f3c
