27_ai/闲鱼xhs/ai有温度/code01_BBPE等9个文件/code02_PPO/save_model/save_lora/adapter_model.bin (torch, 426678 bytes, 96 tensors)

base_model.model.model.layers.0.self_attn.k_proj.lora_A.weight f4 [2, 896]
0	0x3ca30b6f	0.019902913
1	0xbc33fa40	-0.010984957
2	0xbcceeb07	-0.025258554
3	0x3bb3bf81	0.0054854755
4	0x3d023210	0.031786025
5	0x3c9d3390	0.019189626
6	0x3c4997d4	0.012304265
7	0x3c9255c6	0.017863166
8	0x3ab06386	0.0013457395
9	0x3cbac55f	0.022799192
10	0x3c04366a	0.008069614
11	0xbca2ecd7	-0.019888325
12	0x3c652f02	0.013988258
13	0xbbdac62a	-0.006676455
14	0xbca9a3a7	-0.020707918
15	0xbc0fe5b8	-0.008782797
16	0xbcfee9a7	-0.031117273
17	0x3cb3a093	0.021927154
18	0x3cd13e56	0.02554242
19	0xbc4c7270	-0.012478456
20	0xbc4f135e	-0.012638895
21	0x3c98af40	0.018638253
22	0x3cfa4ece	0.030555155
23	0xbc25c95a	-0.010118807
24	0xb83c3c45	-4.4878823e-05
25	0xbc8f1c07	-0.01746942
26	0x3cface8e	0.030616071
27	0xbb21dd96	-0.0024698726
28	0xbc8ec612	-0.017428432
29	0xbc2dd9ad	-0.01061098
30	0xbc8d88d9	-0.017277168
31	0xbcff8535	-0.031191448
32	0x3aa96a38	0.0012925332
33	0xbcbf7487	-0.023370994
34	0xbcb73c0a	-0.022367496
35	0x3c66a3a7	0.014077104
36	0x3c88c86f	0.016697137
37	0x3d022553	0.031773876
38	0xbc342ea2	-0.010997446
39	0xbc9f2e1d	-0.019431168
40	0x3d018afa	0.03162668
41	0xbd016388	-0.03158906
42	0x3d0097a4	0.031394616
43	0x3cd8cae0	0.026463926
44	0xbc33b358	-0.010968052
45	0x3b4a35d4	0.0030854838
46	0xbb7f0ca8	-0.0038917456
47	0x3a8cc17f	0.0010738819
48	0x3cd1d6a0	0.025615036
49	0x3c1bfcb4	0.009520698
50	0xbcc34b40	-0.023839593
51	0x3b874bdb	0.0041289157
52	0xbc033c17	-0.008009932
53	0xbc37a4ec	-0.011208754
54	0x3c86fe75	0.016478756
55	0x3c394685	0.011308317
56	0xbcd2579c	-0.025676541
57	0x3c822550	0.015886933
58	0x3c270d70	0.010196075
59	0x3b87307e	0.0041256538
60	0x3ca8b70b	0.020595094
61	0xbc695fb2	-0.014244007
62	0x3c44e0a0	0.012016445
63	0xbcc098fb	-0.023510447
64	0xbce2ef1a	-0.027701903
65	0x3ca4d3fd	0.020120615
66	0xbbdcbf9f	-0.00673671
67	0xbc99d3b3	-0.018777704
68	0xbb459d8c	-0.003015372
69	0xbc458582	-0.0120557565
70	0x3cdbdd40	0.026838899
71	0xbcf01a29	-0.02930935
72	0xbc9b3858	-0.018947765
73	0xbbbdaaaf	-0.0057881693
74	0x3bc04500	0.0058676004
75	0xbcc9b2f6	-0.024621468
76	0xbc82a17b	-0.01594614
77	0xb95fed66	-0.00021355375
78	0x3c48b694	0.012250561
79	0x3b6caa74	0.003611234
80	0xbb1a2d9b	-0.0023525718
81	0xbc2f8c21	-0.010714562
82	0xbbaf7305	-0.0053542876
83	0xbc693685	-0.01423419
84	0x3d08cfa4	0.033401147
85	0x3c0a7eed	0.008453113
86	0x3caf5725	0.021403858
87	0xbcaf01a3	-0.021363085
88	0x3c75f6d5	0.015012463
89	0xbcccf7d1	-0.025020512
90	0xbc91141c	-0.017709784
91	0x3aab6ef8	0.0013079336
92	0x3c9934ce	0.018701937
93	0xbb72660d	-0.0036987097
94	0xbc6cd599	-0.0144552225
95	0x3c9f4dcb	0.019446274
96	0xbbffca02	-0.0078060636
97	0x3cbe5cd1	0.023237618
98	0xbbc14894	-0.0058985446
99	0x3cfee603	0.031115538
100	0x3c4a2e7f	0.012340187
101	0xbca2fb1b	-0.019895127
102	0x3c6343c8	0.013871141
103	0xbc8df1e8	-0.017327264
104	0x3cb7889c	0.022404008
105	0x3c424df1	0.011859403
106	0x3c45a1c6	0.012062496
107	0x3c5146df	0.012773245
108	0x3d0141ca	0.031556882
109	0xbcefd5d9	-0.029276775
110	0x3c600efd	0.0136754485
111	0xbb26cc32	-0.00254513
112	0xbaac0f0f	-0.0013127046
113	0x3c8197aa	0.01581939
114	0x3c9dab36	0.019246679
115	0xbce36199	-0.0277565
116	0xbcb1cbfe	-0.021703716
117	0x3d05e3b8	0.032687873
118	0xbb1e67e2	-0.0024170806
119	0xbcb3d90b	-0.02195408
120	0xbc9aaf72	-0.018882487
121	0x3cca0592	0.02466086
122	0xbce09ce1	-0.027418556
123	0x3c1cdcab	0.009574096
124	0xbc315b9c	-0.010825064
125	0x3cc55051	0.02408615
126	0xbb145134	-0.0022631409
127	0x3c8f90fd	0.01752519
128	0xbd07f23f	-0.03319001
129	0x3b241f67	0.0025043131
130	0x3c5e10b0	0.013553783
131	0xbc8b0a5a	-0.01697271
132	0x3b7e7764	0.0038828487
133	0x3cef0250	0.029175907
134	0x3cc7924f	0.024361758
135	0x3cbf32be	0.023339625
136	0x3c7d1283	0.015446308
137	0xbd0274a9	-0.031849537
138	0xbcc77b02	-0.024350647
139	0xbc8192b2	-0.01581702
140	0x3c785896	0.015157839
141	0x3c34616a	0.011009553
142	0xbb58f82b	-0.0033106904
143	0xbb8e7477	-0.00434738
144	0x3ca41cef	0.020033328
145	0x3cc05682	0.02347875
146	0x3c9ebff8	0.019378647
147	0xbccce808	-0.025012985
148	0x3c969ddf	0.018385826
149	0x3cf676ea	0.030086
150	0x3c422315	0.0118491845
151	0xbcc3a667	-0.023883058
152	0x39bbcaf4	0.0003581863
153	0xbbe0cdff	-0.006860494
154	0xbb106ab7	-0.0022036263
155	0xbcca2e7f	-0.024680374
156	0x3acb84f9	0.00155273
157	0xbc32b82b	-0.010908167
158	0xbd04f369	-0.032458697
159	0xbc221714	-0.009893198
160	0xbc891d53	-0.016737616
161	0xbcc17598	-0.023615643
162	0xbc9d4717	-0.019198937
163	0x3ca6a998	0.02034454
164	0x3c7b02db	0.015320505
165	0x3cb6b84e	0.02230468
166	0xbc05949c	-0.008153107
167	0x3bff8428	0.0077977367
168	0x3cad6f9a	0.02117138
169	0x3cae6ce8	0.021292165
170	0xbcfc8a5a	-0.03082769
171	0x3ce0b1ad	0.027428472
172	0xbc870338	-0.016481027
173	0xbca79410	-0.020456344
174	0x3949e2fa	0.00019253409
175	0xbc439e75	-0.011939635
176	0x3c94d532	0.018168066
177	0x3c483b38	0.01222115
178	0x3cb215b3	0.021738863
179	0x3b6c53a9	0.0036060608
180	0xbc9aa43f	-0.018877147
181	0x3a4ea78f	0.00078832445
182	0xbccafed1	-0.024779709
183	0xbce9c167	-0.028534604
184	0xbc2fdfff	-0.010734557
185	0xbcf5006f	-0.029907433
186	0x3cdd1cdc	0.0269913
187	0xbce65b1e	-0.02811962
188	0xbcfa08e8	-0.030521825
189	0x3cf87337	0.030328376
190	0xbc345afb	-0.01100802
191	0xbcc7da50	-0.024396092
192	0xbc2ed925	-0.0106718885
193	0x3cee95db	0.029124191
194	0xbd038160	-0.032105803
195	0xbbcdc698	-0.0062797777
196	0x3a9ad785	0.0011813497
197	0x3cd331ac	0.025780521
198	0x3c46f956	0.012144407
199	0xbc91dba5	-0.01780493
200	0x3cc48494	0.023989
201	0x3bb39ab9	0.005481091
202	0xbc8f7238	-0.017510518
203	0x3c7e2517	0.015511773
204	0xbb6ad1cd	-0.0035830617
205	0xbc6e62e2	-0.014549943
206	0x3af7683c	0.0018875669
207	0x3c930130	0.017944902
208	0x3cbbd6b4	0.022929527
209	0xbc836115	-0.016037503
210	0x3cb115a1	0.021616759
211	0xbaaabf3e	-0.0013026965
212	0x3cc0f73d	0.023555392
213	0xbc378574	-0.011201251
214	0x3b4d7ee6	0.0031356155
215	0x3cddc9c7	0.027073754
216	0x3c9beb82	0.019033197
217	0x3c5103e8	0.012757279
218	0x3ca8fe30	0.020629019
219	0x3ba7ed79	0.0051247445
220	0xbb9fbbb4	-0.004874671
221	0x3cb596cb	0.02216663
222	0xbce6f81c	-0.02819448
223	0x3a0a8104	0.0005283507
224	0x399e16d6	0.00030153122
225	0x3c519163	0.012791011
226	0x3c960928	0.018314913
227	0xbcba112b	-0.022713264
228	0xbc72b7c0	-0.014814317
229	0xbbc36213	-0.005962619
230	0xbcd1cf84	-0.025611646
231	0xbcce8c80	-0.02521348
232	0x3b9b5cfb	0.0047413087
233	0x3c7111cb	0.014713715
234	0x3c38a74c	0.011270355
235	0x3ca7bc01	0.02047539
236	0xbc3a8a30	-0.0113854855
237	0xbc14dd21	-0.009085924
238	0xbb530bcb	-0.0032203074
239	0x3cdb1c27	0.026746823
240	0xbc9cef41	-0.019157054
241	0xbcd2d135	-0.025734523
242	0xbc3bf223	-0.011471304
243	0x3c3a9626	0.011388337
244	0xbb72e310	-0.003706161
245	0x3c385ae5	0.01125214
246	0x3ca2e1b3	0.019883012
247	0xbc885a2c	-0.01664456
248	0x3c8c90a5	0.017158816
249	0xbcb99c24	-0.022657461
250	0xbcbac0d3	-0.022797024
251	0x3b99ba15	0.004691372
252	0x3afdc3b9	0.0019360698
253	0xbc0189e4	-0.007906411
254	0xbb9fbb56	-0.004874627
255	0xbcede762	-0.029040996

base_model.model.model.layers.0.self_attn.k_proj.lora_B.weight f4 [128, 2]
0	0x00000000	0.0
1	0x00000000	0.0
2	0x00000000	0.0
3	0x00000000	0.0
4	0x00000000	0.0
5	0x00000000	0.0
6	0x00000000	0.0
7	0x00000000	0.0
8	0x00000000	0.0
9	0x00000000	0.0
10	0x00000000	0.0
11	0x00000000	0.0
12	0x00000000	0.0
13	0x00000000	0.0
14	0x00000000	0.0
15	0x00000000	0.0
16	0x00000000	0.0
17	0x00000000	0.0
18	0x00000000	0.0
19	0x00000000	0.0
20	0x00000000	0.0
21	0x00000000	0.0
22	0x00000000	0.0
23	0x00000000	0.0
24	0x00000000	0.0
25	0x00000000	0.0
26	0x00000000	0.0
27	0x00000000	0.0
28	0x00000000	0.0
29	0x00000000	0.0
30	0x00000000	0.0
31	0x00000000	0.0
32	0x00000000	0.0
33	0x00000000	0.0
34	0x00000000	0.0
35	0x00000000	0.0
36	0x00000000	0.0
37	0x00000000	0.0
38	0x00000000	0.0
39	0x00000000	0.0
40	0x00000000	0.0
41	0x00000000	0.0
42	0x00000000	0.0
43	0x00000000	0.0
44	0x00000000	0.0
45	0x00000000	0.0
46	0x00000000	0.0
47	0x00000000	0.0
48	0x00000000	0.0
49	0x00000000	0.0
50	0x00000000	0.0
51	0x00000000	0.0
52	0x00000000	0.0
53	0x00000000	0.0
54	0x00000000	0.0
55	0x00000000	0.0
56	0x00000000	0.0
57	0x00000000	0.0
58	0x00000000	0.0
59	0x00000000	0.0
60	0x00000000	0.0
61	0x00000000	0.0
62	0x00000000	0.0
63	0x00000000	0.0
64	0x00000000	0.0
65	0x00000000	0.0
66	0x00000000	0.0
67	0x00000000	0.0
68	0x00000000	0.0
69	0x00000000	0.0
70	0x00000000	0.0
71	0x00000000	0.0
72	0x00000000	0.0
73	0x00000000	0.0
74	0x00000000	0.0
75	0x00000000	0.0
76	0x00000000	0.0
77	0x00000000	0.0
78	0x00000000	0.0
79	0x00000000	0.0
80	0x00000000	0.0
81	0x00000000	0.0
82	0x00000000	0.0
83	0x00000000	0.0
84	0x00000000	0.0
85	0x00000000	0.0
86	0x00000000	0.0
87	0x00000000	0.0
88	0x00000000	0.0
89	0x00000000	0.0
90	0x00000000	0.0
91	0x00000000	0.0
92	0x00000000	0.0
93	0x00000000	0.0
94	0x00000000	0.0
95	0x00000000	0.0
96	0x00000000	0.0
97	0x00000000	0.0
98	0x00000000	0.0
99	0x00000000	0.0
100	0x00000000	0.0
101	0x00000000	0.0
102	0x00000000	0.0
103	0x00000000	0.0
104	0x00000000	0.0
105	0x00000000	0.0
106	0x00000000	0.0
107	0x00000000	0.0
108	0x00000000	0.0
109	0x00000000	0.0
110	0x00000000	0.0
111	0x00000000	0.0
112	0x00000000	0.0
113	0x00000000	0.0
114	0x00000000	0.0
115	0x00000000	0.0
116	0x00000000	0.0
117	0x00000000	0.0
118	0x00000000	0.0
119	0x00000000	0.0
120	0x00000000	0.0
121	0x00000000	0.0
122	0x00000000	0.0
123	0x00000000	0.0
124	0x00000000	0.0
125	0x00000000	0.0
126	0x00000000	0.0
127	0x00000000	0.0
128	0x00000000	0.0
129	0x00000000	0.0
130	0x00000000	0.0
131	0x00000000	0.0
132	0x00000000	0.0
133	0x00000000	0.0
134	0x00000000	0.0
135	0x00000000	0.0
136	0x00000000	0.0
137	0x00000000	0.0
138	0x00000000	0.0
139	0x00000000	0.0
140	0x00000000	0.0
141	0x00000000	0.0
142	0x00000000	0.0
143	0x00000000	0.0
144	0x00000000	0.0
145	0x00000000	0.0
146	0x00000000	0.0
147	0x00000000	0.0
148	0x00000000	0.0
149	0x00000000	0.0
150	0x00000000	0.0
151	0x00000000	0.0
152	0x00000000	0.0
153	0x00000000	0.0
154	0x00000000	0.0
155	0x00000000	0.0
156	0x00000000	0.0
157	0x00000000	0.0
158	0x00000000	0.0
159	0x00000000	0.0
160	0x00000000	0.0
161	0x00000000	0.0
162	0x00000000	0.0
163	0x00000000	0.0
164	0x00000000	0.0
165	0x00000000	0.0
166	0x00000000	0.0
167	0x00000000	0.0
168	0x00000000	0.0
169	0x00000000	0.0
170	0x00000000	0.0
171	0x00000000	0.0
172	0x00000000	0.0
173	0x00000000	0.0
174	0x00000000	0.0
175	0x00000000	0.0
176	0x00000000	0.0
177	0x00000000	0.0
178	0x00000000	0.0
179	0x00000000	0.0
180	0x00000000	0.0
181	0x00000000	0.0
182	0x00000000	0.0
183	0x00000000	0.0
184	0x00000000	0.0
185	0x00000000	0.0
186	0x00000000	0.0
187	0x00000000	0.0
188	0x00000000	0.0
189	0x00000000	0.0
190	0x00000000	0.0
191	0x00000000	0.0
192	0x00000000	0.0
193	0x00000000	0.0
194	0x00000000	0.0
195	0x00000000	0.0
196	0x00000000	0.0
197	0x00000000	0.0
198	0x00000000	0.0
199	0x00000000	0.0
200	0x00000000	0.0
201	0x00000000	0.0
202	0x00000000	0.0
203	0x00000000	0.0
204	0x00000000	0.0
205	0x00000000	0.0
206	0x00000000	0.0
207	0x00000000	0.0
208	0x00000000	0.0
209	0x00000000	0.0
210	0x00000000	0.0
211	0x00000000	0.0
212	0x00000000	0.0
213	0x00000000	0.0
214	0x00000000	0.0
215	0x00000000	0.0
216	0x00000000	0.0
217	0x00000000	0.0
218	0x00000000	0.0
219	0x00000000	0.0
220	0x00000000	0.0
221	0x00000000	0.0
222	0x00000000	0.0
223	0x00000000	0.0
224	0x00000000	0.0
225	0x00000000	0.0
226	0x00000000	0.0
227	0x00000000	0.0
228	0x00000000	0.0
229	0x00000000	0.0
230	0x00000000	0.0
231	0x00000000	0.0
232	0x00000000	0.0
233	0x00000000	0.0
234	0x00000000	0.0
235	0x00000000	0.0
236	0x00000000	0.0
237	0x00000000	0.0
238	0x00000000	0.0
239	0x00000000	0.0
240	0x00000000	0.0
241	0x00000000	0.0
242	0x00000000	0.0
243	0x00000000	0.0
244	0x00000000	0.0
245	0x00000000	0.0
246	0x00000000	0.0
247	0x00000000	0.0
248	0x00000000	0.0
249	0x00000000	0.0
250	0x00000000	0.0
251	0x00000000	0.0
252	0x00000000	0.0
253	0x00000000	0.0
254	0x00000000	0.0
255	0x00000000	0.0

base_model.model.model.layers.0.self_attn.v_proj.lora_A.weight f4 [2, 896]
0	0x3cb11131	0.021614643
1	0xbcdf00c5	-0.027222047
2	0x3b5c8ccf	0.0033653264
3	0xbb56f4c1	-0.0032799693
4	0xbcd45ec6	-0.025924098
5	0x3c1eccb0	0.009692356
6	0x3cf765a1	0.030199828
7	0xbc16bdf8	-0.0092005655
8	0xbd08c086	-0.03338673
9	0xbc66f869	-0.0140973115
10	0xbc91afd0	-0.01778403
11	0xbd00fa96	-0.031488977
12	0xbcc6ffbc	-0.024291866
13	0x3be84271	0.0070879986
14	0x3b4b870c	0.0031055836
15	0x3c603776	0.013685098
16	0xbd0324b3	-0.03201742
17	0x3cb57ac1	0.02215326
18	0x3b02d9b9	0.0019966199
19	0xbc345e4e	-0.011008812
20	0xbcaeb7d9	-0.0213279
21	0xbc1b299e	-0.0094703715
22	0xbce28fd0	-0.027656466
23	0x3c0ac0ec	0.008468848
24	0x3c28b59a	0.010297203
25	0x3ca985ee	0.020693745
26	0x3ab71e06	0.001397074
27	0xbc13193e	-0.008978186
28	0xbc3d9760	-0.011571735
29	0xbc34a179	-0.011024826
30	0xbc048b01	-0.008089782
31	0xbc87b0d8	-0.016563818
32	0x3cf5a83b	0.029987445
33	0xbc2b4873	-0.010454285
34	0xbd0776ee	-0.033072405
35	0x3c967659	0.01836698
36	0x3ca4075c	0.02002304
37	0xbca6842f	-0.020326702
38	0xbc21b0a7	-0.009868777
39	0x3c077170	0.008266792
40	0xbcf406b6	-0.029788356
41	0x3c819cf8	0.015821919
42	0x3cba090b	0.02270939
43	0x3ceef54d	0.029169703
44	0x3b360186	0.0027771904
45	0xbcee970a	-0.029124755
46	0xbcec8be0	-0.028875291
47	0x3ceb61e1	0.028733196
48	0x3d026767	0.031836893
49	0xbd0815c1	-0.03322387
50	0xbc5b0f7a	-0.013370389
51	0xbce5613f	-0.028000472
52	0xbc751ab5	-0.014959981
53	0x3cebb341	0.028771998
54	0x3b82b9d1	0.003989436
55	0x3b126e87	0.0022343711
56	0x3ca0f554	0.019648232
57	0xbc9f6198	-0.019455716
58	0xbaedd10a	-0.0018143964
59	0xbb5f77cd	-0.0034098506
60	0xbd05c7e2	-0.032661326
61	0x3c3a9d19	0.011389994
62	0xbce995f7	-0.028513892
63	0xbc231e19	-0.009955906
64	0xbad6f159	-0.0016398832
65	0x3bb2a119	0.0054513332
66	0xbc287010	-0.010280624
67	0x3b85f1da	0.004087669
68	0x3cc7d38c	0.024392866
69	0x3a01455b	0.0004931294
70	0xbc159d3e	-0.009131728
71	0xbc03874f	-0.008027866
72	0xbca10348	-0.019654885
73	0xbcaaa7c2	-0.020831946
74	0xbbc919bb	-0.0061371005
75	0xbcd09b46	-0.025464665
76	0xbc8ddaff	-0.01731634
77	0xbc3a52c8	-0.011372276
78	0x3d040613	0.032232355
79	0xbb139786	-0.0022520735
80	0x3be7a576	0.007069285
81	0xbc84d330	-0.016213983
82	0xbb42425e	-0.0029641609
83	0x3c8248de	0.015903886
84	0xbb30972c	-0.0026945574
85	0x3d088899	0.033333395
86	0xbcb67be5	-0.022275874
87	0xbc6dd041	-0.014514984
88	0x3d03ba80	0.032160282
89	0xbd07ad00	-0.03312397
90	0x3c97de7e	0.01853871
91	0x39a9dbf0	0.00032398058
92	0x3c825a7d	0.015912289
93	0xbc9ddc01	-0.019269945
94	0x3b999581	0.0046870117
95	0xbcf1a4bd	-0.029497499
96	0xbcddde2a	-0.027083475
97	0xbcfee7f7	-0.031116469
98	0x3b3f6d9f	0.0029209626
99	0x3c9d9a75	0.01923869
100	0xbc755452	-0.014973717
101	0x3c6a99d3	0.014318901
102	0xbcd7b6e1	-0.02633232
103	0xbc01be8b	-0.007918964
104	0x3ccccfa9	0.025001364
105	0x3b5f6e73	0.0034092932
106	0xbc553149	-0.013012239
107	0xbc921f8e	-0.017837312
108	0xbad2ef10	-0.0016092975
109	0x3c000cf2	0.007815586
110	0x3ca02e2b	0.019553265
111	0x3cf1c826	0.029514384
112	0x3c98f2f5	0.018670538
113	0x3c427711	0.011869208
114	0xbcdb48a9	-0.026768045
115	0xbb7e0ef5	-0.003876624
116	0xbb8edd19	-0.004359853
117	0x3ca9be26	0.020720553
118	0x3cb87b4a	0.022519726
119	0x3cdddc63	0.027082628
120	0x3ca927a9	0.020648794
121	0xbd019b8b	-0.031642478
122	0x3a8d90c2	0.0010800587
123	0x3c9d8f6f	0.019233434
124	0xbb4d37ad	-0.0031313703
125	0x3cc2f25e	0.02379721
126	0x3b46c601	0.0030330422
127	0x3b9d64d7	0.004803281
128	0xbc84ea50	-0.01622501
129	0xbc8cc2a6	-0.01718266
130	0x3b6bb370	0.0035965107
131	0x3cc47b93	0.023984706
132	0xbc057a85	-0.008146887
133	0xbc0c27d2	-0.008554416
134	0xbc800ebd	-0.015632028
135	0x3bc7cf4c	0.0060977098
136	0x3cf044c1	0.02932966
137	0x3c8a3a1b	0.01687341
138	0x3c4c51dd	0.01247069
139	0xbb9fb60f	-0.004873998
140	0x3c2c7f31	0.010528372
141	0xbc11be45	-0.008895461
142	0xbc590bee	-0.013247473
143	0xbcc1a468	-0.023637965
144	0x3ccb8c35	0.02484713
145	0x3b93ab55	0.0045065084
146	0x3ce6db63	0.028180784
147	0xbcd40f9d	-0.025886351
148	0x3afc780d	0.0019261852
149	0xbcf8aafb	-0.030354967
150	0x3b62ea91	0.0034624676
151	0x3c803a03	0.015652662
152	0xbc888e27	-0.016669346
153	0x3c84818c	0.016175054
154	0xbce29681	-0.027659656
155	0xbd071035	-0.03297444
156	0x3cb57beb	0.022153815
157	0xbcb5ae29	-0.022177773
158	0xbbf60bcb	-0.00750873
159	0xbbcefc26	-0.0063166795
160	0x3b4f20d4	0.003160526
161	0x3ac45235	0.0014978113
162	0xbb557f42	-0.0032577072
163	0x3cb7771a	0.02239566
164	0xbc17fba8	-0.009276308
165	0x3cefeeec	0.029288732
166	0x3c5aec55	0.01336201
167	0xbc97e54f	-0.01854196
168	0xbc4bfbac	-0.01245014
169	0x3c9f7eff	0.019469736
170	0xbc940227	-0.018067433
171	0xbc0b8621	-0.008515866
172	0x3c982435	0.018571952
173	0xbcbd4b0c	-0.023107074
174	0x3c2ad904	0.010427717
175	0xbb2870bb	-0.0025701958
176	0x3ce6ca12	0.028172527
177	0xbcee4160	-0.029083908
178	0xbd0206c1	-0.031744722
179	0xbd004f58	-0.031325668
180	0xbb811a7e	-0.0039399257
181	0xbcc21a83	-0.023694282
182	0xbcca8dde	-0.02472585
183	0x3c2e3573	0.0106328605
184	0x3bc9c25f	0.006157204
185	0x3c4b5c89	0.012412199
186	0xbc5eb74a	-0.013593504
187	0xbcf4e7bc	-0.029895656
188	0xbbccff95	-0.0062560537
189	0x3cc2de75	0.023787716
190	0x3b863601	0.0040957932
191	0xbcbb0cc3	-0.022833234
192	0x3ccb99d0	0.024853617
193	0xbc54d95b	-0.012991275
194	0x3cbc5a12	0.022992168
195	0xbbf74cfa	-0.007547018
196	0xbb436d19	-0.0029819666
197	0x3d0290f7	0.03187653
198	0x3c378236	0.011200478
199	0x3c102dbb	0.0087999655
200	0xbcd28e84	-0.025702722
201	0x3cb1f6ff	0.021724222
202	0x3aeda97c	0.0018132175
203	0x3c14516b	0.009052615
204	0x3ba9f01e	0.005186095
205	0x3cd05ddc	0.02543538
206	0x3c6e02af	0.014527007
207	0xbce14722	-0.02749974
208	0x3a3e51b9	0.00072601024
209	0xbc46462c	-0.012101691
210	0xbcf5520c	-0.02994635
211	0x3c9d3e8e	0.019194867
212	0xbc7c6f19	-0.015407347
213	0xbb50e63d	-0.0031875514
214	0xbc99cf1b	-0.018775513
215	0xbc074747	-0.00825674
216	0xbb994d13	-0.0046783774
217	0xbb98d31a	-0.004663837
218	0x3b0e0dd6	0.0021675727
219	0x3cedf0f8	0.029045567
220	0xbd03cf67	-0.032180216
221	0x3a168285	0.0005741495
222	0xbc8ca321	-0.01716763
223	0xbbf43df8	-0.0074536763
224	0xbc970eb7	-0.018439634
225	0x3c4277ce	0.011869384
226	0x3c6baf8b	0.014385114
227	0xbcd35334	-0.02579651
228	0xbd05c434	-0.032657817
229	0x3c996e48	0.018729344
230	0x3d04e401	0.032444004
231	0x3ba2378d	0.00495047
232	0xbbaf58d4	-0.0053511653
233	0xbb9af1c7	-0.004728529
234	0x3d020648	0.03174427
235	0x3cab825a	0.02093618
236	0x3b02bb85	0.0019948196
237	0x3c33ef31	0.010982321
238	0x3c61340f	0.013745322
239	0xbc9b1b8b	-0.018934032
240	0x3bb8874b	0.0056313626
241	0xbc9ac9bf	-0.018895028
242	0x3c6fa692	0.014627116
243	0xbbd9db35	-0.006648446
244	0x3ae5c6ba	0.0017530539
245	0xbb054cb7	-0.0020339915
246	0x3ccc73b5	0.024957517
247	0xbba9849c	-0.005173279
248	0x3a9d3052	0.001199255
249	0x3cabcf5e	0.020972904
250	0x3cd7b0c6	0.02632941
251	0x3b33ff94	0.002746557
252	0xbcb6d439	-0.022317993
253	0xbc699ea2	-0.014259012
254	0xbcf2066c	-0.029544078
255	0x3d0273fd	0.031848896

base_model.model.model.layers.0.self_attn.v_proj.lora_B.weight f4 [128, 2]
0	0x00000000	0.0
1	0x00000000	0.0
2	0x00000000	0.0
3	0x00000000	0.0
4	0x00000000	0.0
5	0x00000000	0.0
6	0x00000000	0.0
7	0x00000000	0.0
8	0x00000000	0.0
9	0x00000000	0.0
10	0x00000000	0.0
11	0x00000000	0.0
12	0x00000000	0.0
13	0x00000000	0.0
14	0x00000000	0.0
15	0x00000000	0.0
16	0x00000000	0.0
17	0x00000000	0.0
18	0x00000000	0.0
19	0x00000000	0.0
20	0x00000000	0.0
21	0x00000000	0.0
22	0x00000000	0.0
23	0x00000000	0.0
24	0x00000000	0.0
25	0x00000000	0.0
26	0x00000000	0.0
27	0x00000000	0.0
28	0x00000000	0.0
29	0x00000000	0.0
30	0x00000000	0.0
31	0x00000000	0.0
32	0x00000000	0.0
33	0x00000000	0.0
34	0x00000000	0.0
35	0x00000000	0.0
36	0x00000000	0.0
37	0x00000000	0.0
38	0x00000000	0.0
39	0x00000000	0.0
40	0x00000000	0.0
41	0x00000000	0.0
42	0x00000000	0.0
43	0x00000000	0.0
44	0x00000000	0.0
45	0x00000000	0.0
46	0x00000000	0.0
47	0x00000000	0.0
48	0x00000000	0.0
49	0x00000000	0.0
50	0x00000000	0.0
51	0x00000000	0.0
52	0x00000000	0.0
53	0x00000000	0.0
54	0x00000000	0.0
55	0x00000000	0.0
56	0x00000000	0.0
57	0x00000000	0.0
58	0x00000000	0.0
59	0x00000000	0.0
60	0x00000000	0.0
61	0x00000000	0.0
62	0x00000000	0.0
63	0x00000000	0.0
64	0x00000000	0.0
65	0x00000000	0.0
66	0x00000000	0.0
67	0x00000000	0.0
68	0x00000000	0.0
69	0x00000000	0.0
70	0x00000000	0.0
71	0x00000000	0.0
72	0x00000000	0.0
73	0x00000000	0.0
74	0x00000000	0.0
75	0x00000000	0.0
76	0x00000000	0.0
77	0x00000000	0.0
78	0x00000000	0.0
79	0x00000000	0.0
80	0x00000000	0.0
81	0x00000000	0.0
82	0x00000000	0.0
83	0x00000000	0.0
84	0x00000000	0.0
85	0x00000000	0.0
86	0x00000000	0.0
87	0x00000000	0.0
88	0x00000000	0.0
89	0x00000000	0.0
90	0x00000000	0.0
91	0x00000000	0.0
92	0x00000000	0.0
93	0x00000000	0.0
94	0x00000000	0.0
95	0x00000000	0.0
96	0x00000000	0.0
97	0x00000000	0.0
98	0x00000000	0.0
99	0x00000000	0.0
100	0x00000000	0.0
101	0x00000000	0.0
102	0x00000000	0.0
103	0x00000000	0.0
104	0x00000000	0.0
105	0x00000000	0.0
106	0x00000000	0.0
107	0x00000000	0.0
108	0x00000000	0.0
109	0x00000000	0.0
110	0x00000000	0.0
111	0x00000000	0.0
112	0x00000000	0.0
113	0x00000000	0.0
114	0x00000000	0.0
115	0x00000000	0.0
116	0x00000000	0.0
117	0x00000000	0.0
118	0x00000000	0.0
119	0x00000000	0.0
120	0x00000000	0.0
121	0x00000000	0.0
122	0x00000000	0.0
123	0x00000000	0.0
124	0x00000000	0.0
125	0x00000000	0.0
126	0x00000000	0.0
127	0x00000000	0.0
128	0x00000000	0.0
129	0x00000000	0.0
130	0x00000000	0.0
131	0x00000000	0.0
132	0x00000000	0.0
133	0x00000000	0.0
134	0x00000000	0.0
135	0x00000000	0.0
136	0x00000000	0.0
137	0x00000000	0.0
138	0x00000000	0.0
139	0x00000000	0.0
140	0x00000000	0.0
141	0x00000000	0.0
142	0x00000000	0.0
143	0x00000000	0.0
144	0x00000000	0.0
145	0x00000000	0.0
146	0x00000000	0.0
147	0x00000000	0.0
148	0x00000000	0.0
149	0x00000000	0.0
150	0x00000000	0.0
151	0x00000000	0.0
152	0x00000000	0.0
153	0x00000000	0.0
154	0x00000000	0.0
155	0x00000000	0.0
156	0x00000000	0.0
157	0x00000000	0.0
158	0x00000000	0.0
159	0x00000000	0.0
160	0x00000000	0.0
161	0x00000000	0.0
162	0x00000000	0.0
163	0x00000000	0.0
164	0x00000000	0.0
165	0x00000000	0.0
166	0x00000000	0.0
167	0x00000000	0.0
168	0x00000000	0.0
169	0x00000000	0.0
170	0x00000000	0.0
171	0x00000000	0.0
172	0x00000000	0.0
173	0x00000000	0.0
174	0x00000000	0.0
175	0x00000000	0.0
176	0x00000000	0.0
177	0x00000000	0.0
178	0x00000000	0.0
179	0x00000000	0.0
180	0x00000000	0.0
181	0x00000000	0.0
182	0x00000000	0.0
183	0x00000000	0.0
184	0x00000000	0.0
185	0x00000000	0.0
186	0x00000000	0.0
187	0x00000000	0.0
188	0x00000000	0.0
189	0x00000000	0.0
190	0x00000000	0.0
191	0x00000000	0.0
192	0x00000000	0.0
193	0x00000000	0.0
194	0x00000000	0.0
195	0x00000000	0.0
196	0x00000000	0.0
197	0x00000000	0.0
198	0x00000000	0.0
199	0x00000000	0.0
200	0x00000000	0.0
201	0x00000000	0.0
202	0x00000000	0.0
203	0x00000000	0.0
204	0x00000000	0.0
205	0x00000000	0.0
206	0x00000000	0.0
207	0x00000000	0.0
208	0x00000000	0.0
209	0x00000000	0.0
210	0x00000000	0.0
211	0x00000000	0.0
212	0x00000000	0.0
213	0x00000000	0.0
214	0x00000000	0.0
215	0x00000000	0.0
216	0x00000000	0.0
217	0x00000000	0.0
218	0x00000000	0.0
219	0x00000000	0.0
220	0x00000000	0.0
221	0x00000000	0.0
222	0x00000000	0.0
223	0x00000000	0.0
224	0x00000000	0.0
225	0x00000000	0.0
226	0x00000000	0.0
227	0x00000000	0.0
228	0x00000000	0.0
229	0x00000000	0.0
230	0x00000000	0.0
231	0x00000000	0.0
232	0x00000000	0.0
233	0x00000000	0.0
234	0x00000000	0.0
235	0x00000000	0.0
236	0x00000000	0.0
237	0x00000000	0.0
238	0x00000000	0.0
239	0x00000000	0.0
240	0x00000000	0.0
241	0x00000000	0.0
242	0x00000000	0.0
243	0x00000000	0.0
244	0x00000000	0.0
245	0x00000000	0.0
246	0x00000000	0.0
247	0x00000000	0.0
248	0x00000000	0.0
249	0x00000000	0.0
250	0x00000000	0.0
251	0x00000000	0.0
252	0x00000000	0.0
253	0x00000000	0.0
254	0x00000000	0.0
255	0x00000000	0.0

base_model.model.model.layers.1.self_attn.k_proj.lora_A.weight f4 [2, 896]
0	0xbcf25246	-0.029580247
1	0x3c0f7287	0.008755333
2	0xbcfef05a	-0.031120468
3	0x3cf510e7	0.029915286
4	0x3cd32312	0.025773559
5	0x3b6197f2	0.0034422842
6	0x3d04d1e3	0.032426726
7	0x3b8105a6	0.003937441
8	0x3c211bb8	0.009833269
9	0xbb91da77	-0.004451092
10	0xbcdcf98a	-0.026974458
11	0x3cad0afc	0.021123402
12	0xbc1a7444	-0.009427134
13	0x3d0180f2	0.031617112
14	0xbd077db9	-0.033078883
15	0xbca6c78b	-0.020358821
16	0x3c8d3476	0.01723693
17	0xbcf748cd	-0.030186081
18	0xbca66e20	-0.020316184
19	0xbbd5c838	-0.006524112
20	0x3cfea471	0.031084271
21	0x3cd92ed3	0.026511585
22	0x3b4984e7	0.0030749382
23	0xbcc68c56	-0.02423684
24	0x3c220736	0.0098894145
25	0xbce3cfd1	-0.027809056
26	0xbc2aee22	-0.010432752
27	0x3d086a1c	0.03330432
28	0xbc827a7e	-0.01592755
29	0xbcefb039	-0.029258834
30	0x3cb282f1	0.021790953
31	0xbcf5ab0a	-0.029988784
32	0xbbd853b4	-0.006601775
33	0x3d06e1ee	0.032930307
34	0xbcfd6a59	-0.0309345
35	0xbc4384a7	-0.011933482
36	0xbc6c70ca	-0.014431188
37	0xbba308a7	-0.0049753967
38	0x3cb41ee2	0.021987382
39	0xbcaeb855	-0.02132813
40	0x3cd0346d	0.025415624
41	0x3b7fdd96	0.0039041988
42	0x3cae665b	0.021289041
43	0xbb826f6b	-0.003980567
44	0x3c8d7724	0.017268725
45	0xbc7195db	-0.014745201
46	0x3bde4d68	0.00678413
47	0xbb591edb	-0.0033129964
48	0x3c27ce05	0.01024199
49	0xbcfa6376	-0.030565005
50	0xbc3eb610	-0.011640087
51	0xbacd36e0	-0.0015656613
52	0xbcc149dd	-0.023594791
53	0xbca8500c	-0.020545982
54	0xbc40dfa9	-0.011772075
55	0xbce0ee78	-0.02745746
56	0x3cc23447	0.023706568
57	0x3c81fd4e	0.015867855
58	0xbcd3ed70	-0.025870055
59	0x3c807746	0.015681874
60	0x3d030c2a	0.031994022
61	0x3ce52ee4	0.02797646
62	0x3d02fef2	0.031981416
63	0x3ce4596f	0.027874677
64	0x3cd9ee37	0.026602848
65	0x3cfceaa4	0.030873604
66	0x3c1a8c3c	0.009432849
67	0xbbdfe784	-0.0068330187
68	0x3bc26985	0.005932989
69	0x3c59057f	0.013245939
70	0x39ae2bba	0.00033220445
71	0x3cee0244	0.029053815
72	0x3cebebf8	0.028799042
73	0xbbc48f8b	-0.005998557
74	0x3c92cee9	0.017920928
75	0x3cd0cacb	0.025487324
76	0x3bc26db2	0.005933487
77	0xbbd2a689	-0.006428544
78	0xbd044797	-0.032294836
79	0x3c38de09	0.011283406
80	0xbcbfca45	-0.02341188
81	0x3cbe9964	0.023266502
82	0x3b819b59	0.0039552865
83	0xbc7ebf6b	-0.015548567
84	0xbc0f1378	-0.008732669
85	0x3cf23531	0.02956638
86	0xbb505f12	-0.0031794948
87	0xbc4900e9	-0.012268283
88	0x3be28783	0.006913127
89	0x3b85df3e	0.0040854504
90	0x3b59dccf	0.0033243184
91	0x3ccaa41c	0.024736457
92	0x3a0d24a6	0.0005384184
93	0xbc3418e7	-0.010992265
94	0xbc99c8d3	-0.018772518
95	0xbc870d0e	-0.016485717
96	0x3ccba5aa	0.024859268
97	0x3bbc29dd	0.005742295
98	0x3c2e1aa8	0.0106264725
99	0x3cda693d	0.02666151
100	0x3cc82ae8	0.024434522
101	0xbcd58a68	-0.026066974
102	0xba99ea97	-0.0011742887
103	0x3c046399	0.008080387
104	0xbcf986a2	-0.030459706
105	0x3bd46577	0.006481822
106	0x3cc7219e	0.024308022
107	0xbc868b31	-0.016423794
108	0x3af10f27	0.0018391357
109	0xbcea4a5c	-0.02859991
110	0xbd086922	-0.033303387
111	0xbae15320	-0.0017190911
112	0xbce8fc21	-0.028440537
113	0xbc2feb28	-0.010737218
114	0xbcb65ed9	-0.022262024
115	0xbcb4e586	-0.022082102
116	0x3c2c746b	0.010525803
117	0x3cb869f4	0.02251146
118	0xbc86eda5	-0.01647074
119	0x3ccaeb28	0.024770334
120	0x3c973665	0.018458555
121	0xbc99c761	-0.01877183
122	0x3b505d00	0.0031793714
123	0x3bb46ed4	0.005506376
124	0x3cdf657a	0.027270067
125	0x3d05a6f1	0.03262991
126	0xbc6beda2	-0.014399918
127	0x3bb592cf	0.0055411826
128	0xbc816547	-0.015795363
129	0x3cf6874d	0.030093813
130	0x3c6ef8d1	0.01458569
131	0xbcac7b2e	-0.02105483
132	0xbbbe2c3d	-0.0058036135
133	0x3d0872a8	0.03331247
134	0x3c3f438b	0.011673818
135	0xbc136614	-0.008996505
136	0x3ce62ea9	0.028098421
137	0xbc930758	-0.017947838
138	0x3ce36ded	0.027762378
139	0x3bef6f88	0.0073069967
140	0xbc411096	-0.01178374
141	0x3c86f63f	0.016474841
142	0xbd06e332	-0.032931514
143	0x3d0199b7	0.031640735
144	0xbc800272	-0.015626166
145	0xba52fa4a	-0.000804816
146	0x3c8f4f53	0.01749388
147	0x3c7f06ba	0.015565569
148	0xbc1db131	-0.009624765
149	0xbcff1287	-0.031136764
150	0x3ce7edf7	0.028311713
151	0x3c020da2	0.007937821
152	0x3c83a7d0	0.01607123
153	0xbaf7f75b	-0.0018918322
154	0xbd005a05	-0.03133585
155	0x3b9f3492	0.004858562
156	0x3cfb9874	0.030712344
157	0xbc219f3f	-0.009864627
158	0x3cb587a9	0.022159414
159	0x3bcf8b19	0.0063337204
160	0x3c89d4ee	0.016825166
161	0x3bdfa724	0.0068253446
162	0x3c2143cf	0.009842827
163	0x3c3561f3	0.011070716
164	0xb9bd6354	-0.00036122894
165	0x3aae9239	0.0013318724
166	0x3ce0baa3	0.027432745
167	0x3cc4dcbc	0.024031036
168	0xbc7cccbe	-0.015429674
169	0xbccedc00	-0.025251389
170	0xbccc3cb3	-0.024931287
171	0xbcf2b82b	-0.029628834
172	0x3be4531a	0.0069679143
173	0x3cfe6e49	0.031058447
174	0x3bbd78b5	0.0057822117
175	0xbcb250b4	-0.021766998
176	0xbd01504e	-0.031570725
177	0x3c8ae56c	0.0169551
178	0xbcf27705	-0.029597769
179	0x3cd361d2	0.02580348
180	0xbc211eff	-0.00983405
181	0x3b31c81e	0.0027127336
182	0xbc43ed26	-0.011958396
183	0xbb057a6b	-0.0020367156
184	0xbc8fb3bc	-0.017541759
185	0xbcc7bc5a	-0.024381805
186	0x3c8e68a1	0.017383875
187	0x3acfd7f8	0.001585721
188	0xbd064a4b	-0.032785695
189	0xbcb0fcb9	-0.021604883
190	0x3cdb85f7	0.026797278
191	0x3c9eeabf	0.019399045
192	0xbd08d35b	-0.03340469
193	0xbc56347a	-0.013074035
194	0xbc9c9938	-0.01911603
195	0xbc9bb6bb	-0.019008031
196	0xbc719d9b	-0.014747049
197	0x3be80323	0.007080452
198	0xba653244	-0.0008743147
199	0x3ce2cd96	0.027685922
200	0xbc8a4a02	-0.016880993
201	0x3c192b15	0.00934865
202	0x3b948d89	0.004533474
203	0x3b67e869	0.003538633
204	0xbbd21559	-0.0064112362
205	0xbc9c30a7	-0.019066168
206	0x3a85a4ea	0.0010196243
207	0xbcc1c2e9	-0.02365251
208	0xbb9594db	-0.004564864
209	0xbc0b3d73	-0.008498537
210	0xbc7ec700	-0.015550375
211	0xbb7c9e23	-0.0038546405
212	0xbcdca3ab	-0.026933512
213	0xbd03bef0	-0.032164514
214	0xbcc53260	-0.024071872
215	0xbc70290b	-0.014658223
216	0x3b50c8e8	0.003185803
217	0x3d044d84	0.032300487
218	0x3cf5d42e	0.030008402
219	0xbc0778d6	-0.008268556
220	0xbcc2ecf9	-0.023794638
221	0xbcdb01d0	-0.026734263
222	0x3cb24ebc	0.02176606
223	0xbb948bd5	-0.004533271
224	0xbb1fc900	-0.002438128
225	0xbcf4f81d	-0.029903466
226	0xbcb57247	-0.022149218
227	0xbccb8171	-0.024841996
228	0x3cf401b7	0.029785974
229	0x3c4e7f1a	0.012603546
230	0xbcaab5b9	-0.020838605
231	0x3ceb62ef	0.028733699
232	0xbcd99743	-0.026561385
233	0xbcc59342	-0.02411807
234	0xbce7440b	-0.028230688
235	0x3ce4ae25	0.02791507
236	0x3c1bebef	0.0095167
237	0xbc966335	-0.018357852
238	0xbcf2cdc6	-0.029639136
239	0x3c066989	0.0082038725
240	0xbc2acb67	-0.010424471
241	0x3c995a50	0.018719822
242	0x3c619a04	0.01376963
243	0x3cb0ac60	0.02156657
244	0xbcb7f6df	-0.022456584
245	0xbc892c75	-0.016744832
246	0xbba39a1c	-0.0049927365
247	0x3cdc7885	0.026912937
248	0x3c2739ec	0.010206681
249	0xbc136cff	-0.008998155
250	0x3c6343ea	0.013871172
251	0x3b39b117	0.0028334314
252	0x3ce53f32	0.027984235
253	0x3c09cdc4	0.008410875
254	0xba6425ef	-0.00087031623
255	0x3cee048c	0.029054902

base_model.model.model.layers.1.self_attn.k_proj.lora_B.weight f4 [128, 2]
0	0x00000000	0.0
1	0x00000000	0.0
2	0x00000000	0.0
3	0x00000000	0.0
4	0x00000000	0.0
5	0x00000000	0.0
6	0x00000000	0.0
7	0x00000000	0.0
8	0x00000000	0.0
9	0x00000000	0.0
10	0x00000000	0.0
11	0x00000000	0.0
12	0x00000000	0.0
13	0x00000000	0.0
14	0x00000000	0.0
15	0x00000000	0.0
16	0x00000000	0.0
17	0x00000000	0.0
18	0x00000000	0.0
19	0x00000000	0.0
20	0x00000000	0.0
21	0x00000000	0.0
22	0x00000000	0.0
23	0x00000000	0.0
24	0x00000000	0.0
25	0x00000000	0.0
26	0x00000000	0.0
27	0x00000000	0.0
28	0x00000000	0.0
29	0x00000000	0.0
30	0x00000000	0.0
31	0x00000000	0.0
32	0x00000000	0.0
33	0x00000000	0.0
34	0x00000000	0.0
35	0x00000000	0.0
36	0x00000000	0.0
37	0x00000000	0.0
38	0x00000000	0.0
39	0x00000000	0.0
40	0x00000000	0.0
41	0x00000000	0.0
42	0x00000000	0.0
43	0x00000000	0.0
44	0x00000000	0.0
45	0x00000000	0.0
46	0x00000000	0.0
47	0x00000000	0.0
48	0x00000000	0.0
49	0x00000000	0.0
50	0x00000000	0.0
51	0x00000000	0.0
52	0x00000000	0.0
53	0x00000000	0.0
54	0x00000000	0.0
55	0x00000000	0.0
56	0x00000000	0.0
57	0x00000000	0.0
58	0x00000000	0.0
59	0x00000000	0.0
60	0x00000000	0.0
61	0x00000000	0.0
62	0x00000000	0.0
63	0x00000000	0.0
64	0x00000000	0.0
65	0x00000000	0.0
66	0x00000000	0.0
67	0x00000000	0.0
68	0x00000000	0.0
69	0x00000000	0.0
70	0x00000000	0.0
71	0x00000000	0.0
72	0x00000000	0.0
73	0x00000000	0.0
74	0x00000000	0.0
75	0x00000000	0.0
76	0x00000000	0.0
77	0x00000000	0.0
78	0x00000000	0.0
79	0x00000000	0.0
80	0x00000000	0.0
81	0x00000000	0.0
82	0x00000000	0.0
83	0x00000000	0.0
84	0x00000000	0.0
85	0x00000000	0.0
86	0x00000000	0.0
87	0x00000000	0.0
88	0x00000000	0.0
89	0x00000000	0.0
90	0x00000000	0.0
91	0x00000000	0.0
92	0x00000000	0.0
93	0x00000000	0.0
94	0x00000000	0.0
95	0x00000000	0.0
96	0x00000000	0.0
97	0x00000000	0.0
98	0x00000000	0.0
99	0x00000000	0.0
100	0x00000000	0.0
101	0x00000000	0.0
102	0x00000000	0.0
103	0x00000000	0.0
104	0x00000000	0.0
105	0x00000000	0.0
106	0x00000000	0.0
107	0x00000000	0.0
108	0x00000000	0.0
109	0x00000000	0.0
110	0x00000000	0.0
111	0x00000000	0.0
112	0x00000000	0.0
113	0x00000000	0.0
114	0x00000000	0.0
115	0x00000000	0.0
116	0x00000000	0.0
117	0x00000000	0.0
118	0x00000000	0.0
119	0x00000000	0.0
120	0x00000000	0.0
121	0x00000000	0.0
122	0x00000000	0.0
123	0x00000000	0.0
124	0x00000000	0.0
125	0x00000000	0.0
126	0x00000000	0.0
127	0x00000000	0.0
128	0x00000000	0.0
129	0x00000000	0.0
130	0x00000000	0.0
131	0x00000000	0.0
132	0x00000000	0.0
133	0x00000000	0.0
134	0x00000000	0.0
135	0x00000000	0.0
136	0x00000000	0.0
137	0x00000000	0.0
138	0x00000000	0.0
139	0x00000000	0.0
140	0x00000000	0.0
141	0x00000000	0.0
142	0x00000000	0.0
143	0x00000000	0.0
144	0x00000000	0.0
145	0x00000000	0.0
146	0x00000000	0.0
147	0x00000000	0.0
148	0x00000000	0.0
149	0x00000000	0.0
150	0x00000000	0.0
151	0x00000000	0.0
152	0x00000000	0.0
153	0x00000000	0.0
154	0x00000000	0.0
155	0x00000000	0.0
156	0x00000000	0.0
157	0x00000000	0.0
158	0x00000000	0.0
159	0x00000000	0.0
160	0x00000000	0.0
161	0x00000000	0.0
162	0x00000000	0.0
163	0x00000000	0.0
164	0x00000000	0.0
165	0x00000000	0.0
166	0x00000000	0.0
167	0x00000000	0.0
168	0x00000000	0.0
169	0x00000000	0.0
170	0x00000000	0.0
171	0x00000000	0.0
172	0x00000000	0.0
173	0x00000000	0.0
174	0x00000000	0.0
175	0x00000000	0.0
176	0x00000000	0.0
177	0x00000000	0.0
178	0x00000000	0.0
179	0x00000000	0.0
180	0x00000000	0.0
181	0x00000000	0.0
182	0x00000000	0.0
183	0x00000000	0.0
184	0x00000000	0.0
185	0x00000000	0.0
186	0x00000000	0.0
187	0x00000000	0.0
188	0x00000000	0.0
189	0x00000000	0.0
190	0x00000000	0.0
191	0x00000000	0.0
192	0x00000000	0.0
193	0x00000000	0.0
194	0x00000000	0.0
195	0x00000000	0.0
196	0x00000000	0.0
197	0x00000000	0.0
198	0x00000000	0.0
199	0x00000000	0.0
200	0x00000000	0.0
201	0x00000000	0.0
202	0x00000000	0.0
203	0x00000000	0.0
204	0x00000000	0.0
205	0x00000000	0.0
206	0x00000000	0.0
207	0x00000000	0.0
208	0x00000000	0.0
209	0x00000000	0.0
210	0x00000000	0.0
211	0x00000000	0.0
212	0x00000000	0.0
213	0x00000000	0.0
214	0x00000000	0.0
215	0x00000000	0.0
216	0x00000000	0.0
217	0x00000000	0.0
218	0x00000000	0.0
219	0x00000000	0.0
220	0x00000000	0.0
221	0x00000000	0.0
222	0x00000000	0.0
223	0x00000000	0.0
224	0x00000000	0.0
225	0x00000000	0.0
226	0x00000000	0.0
227	0x00000000	0.0
228	0x00000000	0.0
229	0x00000000	0.0
230	0x00000000	0.0
231	0x00000000	0.0
232	0x00000000	0.0
233	0x00000000	0.0
234	0x00000000	0.0
235	0x00000000	0.0
236	0x00000000	0.0
237	0x00000000	0.0
238	0x00000000	0.0
239	0x00000000	0.0
240	0x00000000	0.0
241	0x00000000	0.0
242	0x00000000	0.0
243	0x00000000	0.0
244	0x00000000	0.0
245	0x00000000	0.0
246	0x00000000	0.0
247	0x00000000	0.0
248	0x00000000	0.0
249	0x00000000	0.0
250	0x00000000	0.0
251	0x00000000	0.0
252	0x00000000	0.0
253	0x00000000	0.0
254	0x00000000	0.0
255	0x00000000	0.0

base_model.model.model.layers.1.self_attn.v_proj.lora_A.weight f4 [2, 896]
0	0xbbb29a40	-0.005450517
1	0xbc4d3326	-0.012524402
2	0x3c155dda	0.009116614
3	0xbc4102f5	-0.01178049
4	0x3c4dd34e	0.012562586
5	0xbc86422c	-0.016388975
6	0x3cd49ab3	0.025952673
7	0xbaf5be5b	-0.0018748747
8	0xbb2db5dd	-0.0026506104
9	0xbc81328a	-0.01577117
10	0x3d026c5e	0.03184163
11	0xbce949dd	-0.028477604
12	0x3c8ef1bc	0.017449252
13	0x3be5f1ca	0.007017349
14	0xbcd15590	-0.025553495
15	0x3cfda427	0.030962063
16	0xbcefbcb6	-0.02926479
17	0xbcfa86e5	-0.0305819
18	0x3c8498f7	0.01618622
19	0x3ccaca4b	0.024754664
20	0xbbcefa9d	-0.0063164965
21	0x3ae3d427	0.0017381952
22	0x3b275229	0.002553115
23	0x3c838270	0.016053408
24	0x3ce4c9f9	0.02792834
25	0x3c76898f	0.015047445
26	0xbcf995ed	-0.030466998
27	0xbcc6755c	-0.024225883
28	0xbcf3adac	-0.0297459
29	0xbb765919	-0.0037589727
30	0x3ccb4520	0.024813235
31	0x3ca3d700	0.01999998
32	0x3a434ab0	0.0007449789
33	0xbd0088f7	-0.03138062
34	0x3c5be319	0.0134208435
35	0xbb849f32	-0.004047298
36	0xbc0a2464	-0.008431528
37	0xbcfc43bf	-0.030794023
38	0xbb8176aa	-0.0039509134
39	0x3cf03ff4	0.02932737
40	0xbcad4684	-0.021151789
41	0xbcf46288	-0.02983214
42	0xbc32da4b	-0.010916303
43	0x3ca0def4	0.019637562
44	0xbc3f0e18	-0.011661075
45	0x3be821e7	0.0070841196
46	0xbbdfb8ea	-0.0068274634
47	0x3c467e4c	0.012115072
48	0xbc74ed64	-0.014949176
49	0x3c43b227	0.01194433
50	0xbc4b7f65	-0.01242051
51	0x3c005ba7	0.007834352
52	0xbbb7629c	-0.005596472
53	0x3c64a609	0.0139556015
54	0x3ca5e03a	0.020248521
55	0x3a6d2b9b	0.000904733
56	0xbcd53580	-0.026026487
57	0xbcf81025	-0.030281136
58	0xbcbed030	-0.02329263
59	0xbc01c010	-0.007919326
60	0x3c740233	0.014893102
61	0xbc90a8c9	-0.017658608
62	0x3d046e41	0.03233171
63	0xbbe1b402	-0.0068879137
64	0x3cf5786f	0.029964654
65	0xbb918ea1	-0.0044420515
66	0xbcdc307a	-0.026878584
67	0x3c8bcc2b	0.017065128
68	0x3ce478fc	0.027889721
69	0x3cf65678	0.030070528
70	0x3b93355f	0.0044924463
71	0x3cdf5775	0.027263382
72	0x3be2a5c8	0.0069167353
73	0x3cc18c8c	0.023626588
74	0xbc8ca2eb	-0.01716753
75	0xb981fba1	-0.00024792276
76	0xbaaae7de	-0.0013039073
77	0x3c8cc834	0.017185308
78	0x3cb28554	0.021792091
79	0x3b684a90	0.0035444833
80	0x3cc7c9cf	0.024388222
81	0x3cfdaf69	0.030967431
82	0x3ceed62e	0.029154863
83	0xbc5d930f	-0.013523831
84	0xbcafdbd4	-0.021467127
85	0xbc7268e4	-0.014795516
86	0xbbf20b37	-0.007386591
87	0xbb13c517	-0.0022547895
88	0x3ac559ba	0.0015056648
89	0x3ae91816	0.0017783667
90	0xbb2b77ca	-0.002616393
91	0x3c3a2e89	0.011363634
92	0x3cd86305	0.026414404
93	0x3ceb8a3c	0.028752439
94	0xbc9367a4	-0.017993756
95	0xbca98cf4	-0.020697095
96	0xbceaef0a	-0.028678436
97	0xbc74ea33	-0.014948416
98	0x3b383091	0.002810512
99	0x3cde5f07	0.027144922
100	0x3cc4cb5a	0.024022747
101	0x3cf79726	0.03022344
102	0xbbb73f77	-0.0055922824
103	0xbc27d4e6	-0.01024363
104	0xbba1eb62	-0.00494139
105	0xbcf1546d	-0.029459203
106	0x3cd54c0b	0.026037237
107	0x3cf6eb98	0.030141637
108	0x3d025b24	0.0318252
109	0xbd0608b7	-0.032723155
110	0x3ce4261c	0.027850203
111	0xbc83f5f8	-0.016108498
112	0xbd0788cd	-0.033089448
113	0x3cd4d02d	0.025978172
114	0x3ced5f90	0.028976232
115	0x3d08bc3d	0.033382643
116	0x3cb21a5e	0.021741088
117	0xbc0054db	-0.007832731
118	0x3d056215	0.03256424
119	0xbcf919f8	-0.03040789
120	0xbc99601c	-0.018722586
121	0x3cd09a5d	0.025464231
122	0xbce55480	-0.027994394
123	0xbcce0f61	-0.025153818
124	0x3cc539b7	0.024075372
125	0xbb8bd693	-0.0042675226
126	0xbc872f59	-0.01650207
127	0xbcdff6fa	-0.027339447
128	0x3c9f80e8	0.019470647
129	0x3c45eb34	0.012080003
130	0xbc863d40	-0.016386628
131	0x3cf65e47	0.030074252
132	0x3d058a0c	0.032602355
133	0xbcb1ee98	-0.021720216
134	0xbbe9bb8c	-0.007132953
135	0x39a5450f	0.00031522705
136	0x3c36fc37	0.011168531
137	0xbc86754b	-0.016413352
138	0xbcf85045	-0.030311713
139	0xbc5a3d68	-0.013320304
140	0xbb1fedf3	-0.0024403303
141	0xbc7ea5a5	-0.015542422
142	0xbbfcce03	-0.007714988
143	0xbb89ff8f	-0.004211373
144	0xbcf68cf9	-0.030096518
145	0xbc8422bb	-0.016129842
146	0xbc0efbd5	-0.008727034
147	0x3c9b7b9c	0.01897984
148	0x3cc1cd06	0.023657333
149	0xbcf6137d	-0.03003859
150	0x3b96105d	0.0045795874
151	0x3cbee7b1	0.023303838
152	0xbb559edc	-0.0032595908
153	0x3c999fab	0.018752893
154	0x3d05f936	0.03270837
155	0x3cd077d8	0.025447771
156	0xbca65b4b	-0.020307204
157	0xbcf4e78d	-0.029895568
158	0xbbfb7952	-0.0076743746
159	0xbcab184b	-0.020885607
160	0x3c7aff03	0.015319589
161	0xbccad672	-0.024760459
162	0xbc3ae698	-0.011407517
163	0x3c724cf2	0.014788853
164	0xbb5424f4	-0.0032370659
165	0x3cce3f5d	0.025176698
166	0x3cec4fcd	0.028846646
167	0xba9e1f85	-0.0012063837
168	0x3ca576e9	0.020198302
169	0xbbe99197	-0.0071279514
170	0xbcb25f9a	-0.021774102
171	0xbb838936	-0.0040141596
172	0xbcd46519	-0.025927113
173	0xbcc537ed	-0.024074519
174	0x3cc20eb6	0.023688655
175	0x3acdc6cb	0.0015699504
176	0xba08f712	-0.00052248046
177	0xbba4c78b	-0.00502867
178	0x3b903bfa	0.004401681
179	0x3c156d9e	0.009120373
180	0xbc8b4d74	-0.017004706
181	0x3ceaf798	0.028682515
182	0xbc4ac953	-0.012377101
183	0x3bb5aaf7	0.0055440622
184	0x3b931276	0.0044882847
185	0xbb93fb61	-0.0045160507
186	0xbcf827ea	-0.03029247
187	0x3d008577	0.031377282
188	0x3cfb793a	0.030697454
189	0x3bc6fc42	0.006072552
190	0xbcd409a7	-0.025883509
191	0x3c7034d6	0.014661035
192	0x3c1c5db0	0.009543821
193	0x3c174d23	0.009234699
194	0x3c9ecdab	0.01938518
195	0xbc5c735a	-0.013455236
196	0xbc71b560	-0.014752716
197	0xbc49b56d	-0.012311322
198	0x3cd6dfa6	0.02622969
199	0xbd06ade1	-0.032880668
200	0xbb693358	-0.0035583582
201	0x3c31423c	0.010819014
202	0x3d02209f	0.03176939
203	0x3cec3099	0.028831767
204	0xbb06a515	-0.0020545174
205	0xbb21c678	-0.0024684947
206	0x3c1265e0	0.008935422
207	0x3cc10ae6	0.023564767
208	0x3c1edc64	0.0096961
209	0xbc189611	-0.009313122
210	0xbca01bc5	-0.019544492
211	0xbba3ec8f	-0.005002565
212	0xbb1cc95c	-0.002392373
213	0xbc86eaaa	-0.016469318
214	0x3c408037	0.011749319
215	0xbd016ee2	-0.031599887
216	0x3c96bc32	0.018400285
217	0x3be5c46c	0.0070119407
218	0x3cb5c36f	0.022187917
219	0x3c6f3786	0.01460064
220	0x3cd1171d	0.025523717
221	0xbce5eb0b	-0.028066179
222	0xbcd04823	-0.025425022
223	0x3cd8a0ca	0.026443858
224	0x3c49c3cf	0.012314751
225	0xbca92090	-0.02064541
226	0xbb83a848	-0.0040178634
227	0x3cc8fe1c	0.024535231
228	0xbb9aedef	-0.004728071
229	0x3d073960	0.0330137
230	0xbc7785da	-0.015107596
231	0x3aec6d0c	0.001803787
232	0xba48c189	-0.00076582335
233	0x3c75214e	0.014961554
234	0x3cf2b364	0.029626556
235	0xbb76001a	-0.0037536682
236	0xbb368f5f	-0.0027856452
237	0x3b5fa4c5	0.003412531
238	0xbcbc8389	-0.02301194
239	0xbc2d2c60	-0.010569662
240	0xbcabc9ce	-0.020970251
241	0x3baaaa5d	0.005208297
242	0x3cdc8915	0.026920835
243	0xbbbe5b8c	-0.005809253
244	0x3c13cc79	0.009020918
245	0xbcdc7092	-0.026909146
246	0x3c341d14	0.010993261
247	0xbc7ec93d	-0.015550909
248	0x3be0a926	0.0068561016
249	0xbb62a3ad	-0.0034582422
250	0x3b07f809	0.0020747206
251	0x3c397118	0.011318468
252	0x3cd4187c	0.025890581
253	0x3c514e34	0.012774993
254	0x3c825031	0.015907379
255	0xbcbe4c36	-0.0232297

base_model.model.model.layers.1.self_attn.v_proj.lora_B.weight f4 [128, 2]
0	0x00000000	0.0
1	0x00000000	0.0
2	0x00000000	0.0
3	0x00000000	0.0
4	0x00000000	0.0
5	0x00000000	0.0
6	0x00000000	0.0
7	0x00000000	0.0
8	0x00000000	0.0
9	0x00000000	0.0
10	0x00000000	0.0
11	0x00000000	0.0
12	0x00000000	0.0
13	0x00000000	0.0
14	0x00000000	0.0
15	0x00000000	0.0
16	0x00000000	0.0
17	0x00000000	0.0
18	0x00000000	0.0
19	0x00000000	0.0
20	0x00000000	0.0
21	0x00000000	0.0
22	0x00000000	0.0
23	0x00000000	0.0
24	0x00000000	0.0
25	0x00000000	0.0
26	0x00000000	0.0
27	0x00000000	0.0
28	0x00000000	0.0
29	0x00000000	0.0
30	0x00000000	0.0
31	0x00000000	0.0
32	0x00000000	0.0
33	0x00000000	0.0
34	0x00000000	0.0
35	0x00000000	0.0
36	0x00000000	0.0
37	0x00000000	0.0
38	0x00000000	0.0
39	0x00000000	0.0
40	0x00000000	0.0
41	0x00000000	0.0
42	0x00000000	0.0
43	0x00000000	0.0
44	0x00000000	0.0
45	0x00000000	0.0
46	0x00000000	0.0
47	0x00000000	0.0
48	0x00000000	0.0
49	0x00000000	0.0
50	0x00000000	0.0
51	0x00000000	0.0
52	0x00000000	0.0
53	0x00000000	0.0
54	0x00000000	0.0
55	0x00000000	0.0
56	0x00000000	0.0
57	0x00000000	0.0
58	0x00000000	0.0
59	0x00000000	0.0
60	0x00000000	0.0
61	0x00000000	0.0
62	0x00000000	0.0
63	0x00000000	0.0
64	0x00000000	0.0
65	0x00000000	0.0
66	0x00000000	0.0
67	0x00000000	0.0
68	0x00000000	0.0
69	0x00000000	0.0
70	0x00000000	0.0
71	0x00000000	0.0
72	0x00000000	0.0
73	0x00000000	0.0
74	0x00000000	0.0
75	0x00000000	0.0
76	0x00000000	0.0
77	0x00000000	0.0
78	0x00000000	0.0
79	0x00000000	0.0
80	0x00000000	0.0
81	0x00000000	0.0
82	0x00000000	0.0
83	0x00000000	0.0
84	0x00000000	0.0
85	0x00000000	0.0
86	0x00000000	0.0
87	0x00000000	0.0
88	0x00000000	0.0
89	0x00000000	0.0
90	0x00000000	0.0
91	0x00000000	0.0
92	0x00000000	0.0
93	0x00000000	0.0
94	0x00000000	0.0
95	0x00000000	0.0
96	0x00000000	0.0
97	0x00000000	0.0
98	0x00000000	0.0
99	0x00000000	0.0
100	0x00000000	0.0
101	0x00000000	0.0
102	0x00000000	0.0
103	0x00000000	0.0
104	0x00000000	0.0
105	0x00000000	0.0
106	0x00000000	0.0
107	0x00000000	0.0
108	0x00000000	0.0
109	0x00000000	0.0
110	0x00000000	0.0
111	0x00000000	0.0
112	0x00000000	0.0
113	0x00000000	0.0
114	0x00000000	0.0
115	0x00000000	0.0
116	0x00000000	0.0
117	0x00000000	0.0
118	0x00000000	0.0
119	0x00000000	0.0
120	0x00000000	0.0
121	0x00000000	0.0
122	0x00000000	0.0
123	0x00000000	0.0
124	0x00000000	0.0
125	0x00000000	0.0
126	0x00000000	0.0
127	0x00000000	0.0
128	0x00000000	0.0
129	0x00000000	0.0
130	0x00000000	0.0
131	0x00000000	0.0
132	0x00000000	0.0
133	0x00000000	0.0
134	0x00000000	0.0
135	0x00000000	0.0
136	0x00000000	0.0
137	0x00000000	0.0
138	0x00000000	0.0
139	0x00000000	0.0
140	0x00000000	0.0
141	0x00000000	0.0
142	0x00000000	0.0
143	0x00000000	0.0
144	0x00000000	0.0
145	0x00000000	0.0
146	0x00000000	0.0
147	0x00000000	0.0
148	0x00000000	0.0
149	0x00000000	0.0
150	0x00000000	0.0
151	0x00000000	0.0
152	0x00000000	0.0
153	0x00000000	0.0
154	0x00000000	0.0
155	0x00000000	0.0
156	0x00000000	0.0
157	0x00000000	0.0
158	0x00000000	0.0
159	0x00000000	0.0
160	0x00000000	0.0
161	0x00000000	0.0
162	0x00000000	0.0
163	0x00000000	0.0
164	0x00000000	0.0
165	0x00000000	0.0
166	0x00000000	0.0
167	0x00000000	0.0
168	0x00000000	0.0
169	0x00000000	0.0
170	0x00000000	0.0
171	0x00000000	0.0
172	0x00000000	0.0
173	0x00000000	0.0
174	0x00000000	0.0
175	0x00000000	0.0
176	0x00000000	0.0
177	0x00000000	0.0
178	0x00000000	0.0
179	0x00000000	0.0
180	0x00000000	0.0
181	0x00000000	0.0
182	0x00000000	0.0
183	0x00000000	0.0
184	0x00000000	0.0
185	0x00000000	0.0
186	0x00000000	0.0
187	0x00000000	0.0
188	0x00000000	0.0
189	0x00000000	0.0
190	0x00000000	0.0
191	0x00000000	0.0
192	0x00000000	0.0
193	0x00000000	0.0
194	0x00000000	0.0
195	0x00000000	0.0
196	0x00000000	0.0
197	0x00000000	0.0
198	0x00000000	0.0
199	0x00000000	0.0
200	0x00000000	0.0
201	0x00000000	0.0
202	0x00000000	0.0
203	0x00000000	0.0
204	0x00000000	0.0
205	0x00000000	0.0
206	0x00000000	0.0
207	0x00000000	0.0
208	0x00000000	0.0
209	0x00000000	0.0
210	0x00000000	0.0
211	0x00000000	0.0
212	0x00000000	0.0
213	0x00000000	0.0
214	0x00000000	0.0
215	0x00000000	0.0
216	0x00000000	0.0
217	0x00000000	0.0
218	0x00000000	0.0
219	0x00000000	0.0
220	0x00000000	0.0
221	0x00000000	0.0
222	0x00000000	0.0
223	0x00000000	0.0
224	0x00000000	0.0
225	0x00000000	0.0
226	0x00000000	0.0
227	0x00000000	0.0
228	0x00000000	0.0
229	0x00000000	0.0
230	0x00000000	0.0
231	0x00000000	0.0
232	0x00000000	0.0
233	0x00000000	0.0
234	0x00000000	0.0
235	0x00000000	0.0
236	0x00000000	0.0
237	0x00000000	0.0
238	0x00000000	0.0
239	0x00000000	0.0
240	0x00000000	0.0
241	0x00000000	0.0
242	0x00000000	0.0
243	0x00000000	0.0
244	0x00000000	0.0
245	0x00000000	0.0
246	0x00000000	0.0
247	0x00000000	0.0
248	0x00000000	0.0
249	0x00000000	0.0
250	0x00000000	0.0
251	0x00000000	0.0
252	0x00000000	0.0
253	0x00000000	0.0
254	0x00000000	0.0
255	0x00000000	0.0
