27_ai/闲鱼xhs/ai有温度/code01_BBPE等9个文件/code03_DPO/save_lora/adapter_model.bin (torch, 428263 bytes, 96 tensors)

base_model.model.model.layers.0.self_attn.k_proj.lora_A.weight f4 [2, 896]
0	0xbbd975ef	-0.0066363732
1	0x3cd6589d	0.026165301
2	0xbcab0267	-0.020875169
3	0x3bca556a	0.006174733
4	0xbce094d2	-0.027414713
5	0x3b825e29	0.00397851
6	0xbcfc46ed	-0.030795539
7	0xbc8c96fe	-0.017161842
8	0xbd07a519	-0.033116434
9	0x3cf91772	0.030406687
10	0xbcbe04ed	-0.023195708
11	0x3d0b889d	0.03406583
12	0xbc8c6904	-0.01713992
13	0xbc81b57b	-0.015833607
14	0xbca290df	-0.01984447
15	0x3bb30378	0.00546306
16	0x3bcde854	0.006283799
17	0xbc366339	-0.011132055
18	0xbcd14e3c	-0.02555
19	0x3b15a5f4	0.0022834511
20	0x3d4286d3	0.04749186
21	0x3cf5c2aa	0.03000005
22	0x3b110f02	0.002213419
23	0xbd14fe88	-0.036375552
24	0xbcfac239	-0.03061019
25	0xbbf04411	-0.007332333
26	0xbc862fa6	-0.016380142
27	0xbbaa2f5e	-0.005193635
28	0x3ccca85b	0.024982622
29	0xbcbd6aae	-0.023122158
30	0x3c714ee5	0.014728283
31	0x3c128242	0.008942189
32	0xbc71c76e	-0.01475702
33	0x3c8312be	0.016000148
34	0x3bfe1c8a	0.007754867
35	0x3cfcfb0e	0.030881431
36	0x3d0afd81	0.033933166
37	0xbce50d7c	-0.027960531
38	0x3c7b4b1e	0.015337734
39	0xbc71e258	-0.014763437
40	0xbc155fc0	-0.009117067
41	0x3b2643c5	0.0025369984
42	0x3cfcc83e	0.030857202
43	0xb96cb7e3	-0.00022575217
44	0x3ccc8eb4	0.02497039
45	0x3bc73e92	0.006080457
46	0x3d0f62c2	0.035006292
47	0x3c0f126f	0.008732422
48	0xbc77675a	-0.0151003245
49	0x3c1cf924	0.009580884
50	0xbc2bccf0	-0.010485873
51	0xbc980e72	-0.018561576
52	0x3c1e9684	0.00967944
53	0xbc625c81	-0.013816
54	0xbcc42fe0	-0.02394861
55	0x3c90977c	0.017650358
56	0xbcd15936	-0.025555234
57	0x3d00c017	0.03143319
58	0x3cc515a7	0.024058176
59	0x3b97c9ff	0.004632234
60	0xbce23644	-0.027613766
61	0x3c627996	0.013822934
62	0xbcef99f5	-0.029248217
63	0xbc974544	-0.018465646
64	0xbb3fb96a	-0.0029254803
65	0xbc87d788	-0.016582265
66	0x3d031cc4	0.032009855
67	0x3cd34554	0.025789894
68	0xbcd1c30f	-0.025605706
69	0x3bd0b67c	0.00636941
70	0xbc65ab08	-0.014017828
71	0x3cdb0d5a	0.026739765
72	0x3c749c9a	0.014929915
73	0x3c5de70f	0.013543858
74	0xbc0558a9	-0.008138814
75	0x39710c6c	0.00022988179
76	0xbcfb1635	-0.030650238
77	0xbce5a2f1	-0.028031798
78	0x3bdd9573	0.0067622005
79	0x3ca64ee2	0.020301286
80	0x3c55fe3a	0.013061101
81	0x3c7a167b	0.015264149
82	0x3ca371ba	0.01995169
83	0xbb899e24	-0.00419976
84	0x3cd2aca7	0.025717093
85	0x3c92416c	0.017853461
86	0x3ba9ac00	0.0051779747
87	0xbbe1687d	-0.006878911
88	0xbb8fc9dc	-0.004388077
89	0x3cddeda9	0.027090864
90	0x3caecad5	0.021336952
91	0xba8c60f3	-0.0010710045
92	0xbbe3dc6c	-0.0069537666
93	0xbc580732	-0.013185309
94	0xbcc27f82	-0.023742441
95	0x3bc3395a	0.0059577646
96	0x3d093331	0.033496086
97	0xbd0da01f	-0.03457653
98	0xbd0436c7	-0.032278802
99	0xbc4f1b9f	-0.012640863
100	0x3c0918ff	0.008367776
101	0x3d03bba9	0.03216139
102	0xba324f4b	-0.00068019767
103	0x3b4ef5fb	0.0031579721
104	0xbcf62fca	-0.030052084
105	0xba3d5487	-0.00072223734
106	0x3cf971cc	0.03044977
107	0x3d01f98d	0.03173213
108	0xbc6dd7c3	-0.014516774
109	0xbc2b550f	-0.010457291
110	0xb9c7abf1	-0.00038084344
111	0x3c43782d	0.011930508
112	0x3ca0eba4	0.019643612
113	0x3c21695a	0.009851778
114	0xbbe917a1	-0.0071134125
115	0x3d022e98	0.031782717
116	0xb8e6b2a0	-0.00011000526
117	0xbc3094c2	-0.010777654
118	0x3ce00d15	0.027349988
119	0xbd02ce32	-0.031934924
120	0xbcb78e89	-0.022406833
121	0x3b1871f7	0.0023261288
122	0xbc8f1449	-0.017465727
123	0xbbc4e8e5	-0.0060092085
124	0xbcf4611a	-0.029831458
125	0xbce8cd7c	-0.028418295
126	0x347d76b3	2.3605644e-07
127	0xbcc1c63d	-0.023654098
128	0xbc12810b	-0.008941899
129	0x3c5ebc5f	0.013594716
130	0xbcfc4d72	-0.030798648
131	0xbc9a9310	-0.018868953
132	0x3b676e23	0.003531345
133	0xbbace0c3	-0.005275817
134	0xbc654d2d	-0.013995451
135	0x3c880196	0.016602319
136	0xbcf7ac32	-0.030233476
137	0xbbd12423	-0.0063824817
138	0x3bb3ecb7	0.005490865
139	0xbcf9d1cf	-0.030495552
140	0x3c632ba6	0.013865387
141	0xbcc22e44	-0.023703702
142	0xbc5c1ae1	-0.013434143
143	0x3c1cfe4b	0.009582113
144	0xbc1ecf16	-0.009692928
145	0xbd1d6859	-0.03842959
146	0x3a6d927d	0.0009062661
147	0xbb1dbf14	-0.002407019
148	0x3b1eeaa2	0.0024248739
149	0xbcd4fe3c	-0.026000135
150	0x3b57341a	0.0032837451
151	0x3be674e2	0.0070329765
152	0x3cf12bf2	0.0294399
153	0xbcf4c524	-0.02987916
154	0xbcb1e634	-0.021716215
155	0x3bc062a1	0.0058711325
156	0xbb280549	-0.0025637916
157	0xbd07531b	-0.03303824
158	0x3ca80bca	0.020513434
159	0xbc90e284	-0.017686136
160	0x3cec0a2f	0.02881345
161	0xbc85d778	-0.016338095
162	0x3bb7ec48	0.0056128837
163	0x3be2fcf9	0.0069271293
164	0xbcc0d8c9	-0.023540871
165	0xbd01a54b	-0.031651776
166	0xbce418b2	-0.027843807
167	0x3cc1dffb	0.023666373
168	0xbd17bf2b	-0.037047546
169	0xbcb3fc2c	-0.02197083
170	0x3d30a3fd	0.04312514
171	0xbc7e49a0	-0.015520483
172	0xbc9e3307	-0.019311441
173	0x3c706a1b	0.014673735
174	0x3ca1d484	0.019754656
175	0x3c3af11a	0.011410022
176	0xbd0ca6b4	-0.034338668
177	0x3cf3167e	0.029673811
178	0xbc198645	-0.009370391
179	0xbbd19bec	-0.006396761
180	0xbcdcfa8f	-0.026974944
181	0x3b7b31aa	0.0038329163
182	0x3d3960e6	0.045258425
183	0x3c20e9c7	0.009821362
184	0xbce134e5	-0.027491042
185	0xbac22a6a	-0.0014813666
186	0xba779446	-0.0009444397
187	0x3c43c49f	0.011948734
188	0x3c7d22dd	0.015450207
189	0x3b2fed20	0.0026844218
190	0xbc19deb7	-0.009391478
191	0x3d31aa6e	0.043375425
192	0x3c2a36c4	0.010389034
193	0xbbb59c4b	-0.005542313
194	0xbcd7436a	-0.026277263
195	0x3cca2e93	0.024680411
196	0x3bc140ba	0.0058976086
197	0xbc3a4cff	-0.011370896
198	0x3a0bbbea	0.00053304306
199	0x390e1a5a	0.00013551992
200	0xbb4f819e	-0.0031662951
201	0x3c32f3e4	0.010922406
202	0xbbedbe55	-0.0072553554
203	0x3a0813c0	0.0005190931
204	0x3ced03f6	0.028932553
205	0x3c82783a	0.01592647
206	0x3c8c58e5	0.017132232
207	0x3c4123b3	0.0117882965
208	0x3cbf4c2a	0.023351748
209	0x3d3f24fb	0.046666127
210	0xbcb325c3	-0.021868592
211	0x3c1e7b10	0.009672895
212	0x3c5b3bd0	0.01338096
213	0xbcbdc179	-0.023163544
214	0xbcf9dee4	-0.03050179
215	0x3bdeef0b	0.0068033985
216	0xbca0209a	-0.019546796
217	0xbb4a05ea	-0.003082628
218	0x3cd5356b	0.026026448
219	0xbcf83ce0	-0.030302465
220	0xbc174eb5	-0.009235074
221	0xbcb221c2	-0.021744613
222	0x3c7f7301	0.015591384
223	0xbcc4617d	-0.023972267
224	0xbbdbedff	-0.006711721
225	0x3d04b10e	0.032395415
226	0xbc82c716	-0.015964072
227	0xbc1b2dee	-0.0094714
228	0x3b9002a6	0.004394847
229	0xbd01bd00	-0.031674385
230	0xbc8a4919	-0.016880559
231	0xb9c5cb8c	-0.00037726422
232	0x3c9002bd	0.01757943
233	0x3c515be0	0.012778252
234	0xbcf593c9	-0.029977696
235	0x3bc2b799	0.0059422967
236	0x3cceaf9a	0.025230218
237	0xbbacebac	-0.0052771177
238	0x3b92cab2	0.0044797296
239	0x3c70608a	0.014671454
240	0x3c95d746	0.018291127
241	0xbc04b31b	-0.008099343
242	0x3c8fe1f2	0.017563794
243	0xbaefb591	-0.0018288364
244	0xbd11d18d	-0.035600234
245	0x3c77bbec	0.015120488
246	0xbbe39093	-0.006944725
247	0xba53c9d2	-0.0008079085
248	0x3ca4fc81	0.020139934
249	0x3cdb2812	0.026752505
250	0x3cbda28b	0.023148796
251	0x3cc0de83	0.023543602
252	0x3d05c297	0.03265628
253	0x3cb597dd	0.02216714
254	0xbc93949a	-0.018015195
255	0xbcd3573c	-0.025798433

base_model.model.model.layers.0.self_attn.k_proj.lora_B.weight f4 [128, 2]
0	0x3ba60e35	0.0050676116
1	0x3b8a194c	0.0042144414
2	0x3a8fae25	0.0010961933
3	0x3ac3f02c	0.0014948896
4	0x3b192c42	0.0023372327
5	0x3b1de674	0.002409366
6	0x3bd80e69	0.0065935147
7	0x3c007278	0.0078397915
8	0x3b345f8e	0.0027522775
9	0x3b686e37	0.0035466084
10	0xbb3cf2c5	-0.0028831225
11	0xbb3bce64	-0.0028656954
12	0xbb3ca192	-0.0028782827
13	0xbb4af82b	-0.0030970674
14	0xbb6361f3	-0.0034695833
15	0xbb5013e1	-0.003175013
16	0x3b9b1e56	0.004733841
17	0x3b9136b7	0.0044315713
18	0x3b81e28e	0.003963775
19	0x3b80862a	0.0039222436
20	0x3b037e44	0.0020064274
21	0x3b0ff843	0.0021968044
22	0xbc170ece	-0.009219838
23	0xbbcb3a30	-0.006202005
24	0x3b3ebcbf	0.00291042
25	0x3b37882c	0.0028004749
26	0xbb502769	-0.0031761772
27	0xbb57b2ff	-0.0032913086
28	0xbb30f03f	-0.0026998667
29	0xbb2af754	-0.002608736
30	0x389880f8	7.271947e-05
31	0x399cdced	0.0002991924
32	0x3af71abb	0.0018852571
33	0x3af40a47	0.0018618786
34	0xbb19049e	-0.00233487
35	0xbaff0921	-0.0019457677
36	0xbb4426c4	-0.0029930333
37	0xbb39518e	-0.002827737
38	0x3b968fda	0.004594785
39	0x3b86ec1b	0.0041175014
40	0xbaf8d754	-0.0018985071
41	0xbbe02329	-0.006840129
42	0xbaae48d4	-0.0013296851
43	0xbab8b734	-0.0014092685
44	0xbb878ff3	-0.004137033
45	0xbb77eb53	-0.0037829473
46	0xbb02a50e	-0.0019934806
47	0xbaf911b2	-0.0019002466
48	0x3ac5d405	0.0015093094
49	0x3aaccd04	0.0013183658
50	0xb96125e3	-0.00021471786
51	0xb9e74ccf	-0.0004411698
52	0xba6491ea	-0.00087192527
53	0xba733cc1	-0.00092787674
54	0xba8a3474	-0.0010544197
55	0x39d5947b	0.00040737152
56	0xbaefaeac	-0.0018286309
57	0xba5f8f87	-0.0008528162
58	0xb9cfe1db	-0.00039650392
59	0xb81b0831	-3.696251e-05
60	0xba84cedd	-0.0010132451
61	0xba81c5b1	-0.0009900836
62	0xba1a8c5e	-0.000589555
63	0xb985c8eb	-0.00025517432
64	0x3a39e1db	0.0007090845
65	0x3acabfd1	0.0015468543
66	0xbc25fdaa	-0.010131279
67	0xbc2caa5a	-0.010538662
68	0xbb352f64	-0.0027646655
69	0xbb3e922a	-0.002907882
70	0x3b64177b	0.0034804035
71	0x3b5ac070	0.0033378862
72	0x3b7b1eef	0.0038317998
73	0x3b848d8f	0.0040451954
74	0x3ba14298	0.0049212687
75	0x3baa7a15	0.0052025416
76	0x3b4b7523	0.003104516
77	0x3b45bb83	0.003017158
78	0xbb32c8af	-0.0027280261
79	0xbb28b7ad	-0.0025744245
80	0xbb98e84f	-0.004666365
81	0xbbb3836e	-0.005478314
82	0xbbb8376e	-0.005621842
83	0xbc54a6b5	-0.012979199
84	0xba82948f	-0.0009962487
85	0x3907c559	0.00012948121
86	0xbb8d0ec6	-0.0043047396
87	0xbb51b7e1	-0.003200047
88	0xbc645072	-0.013935195
89	0xbc60453e	-0.013688384
90	0x3b9497c4	0.0045346934
91	0x3b9a652f	0.004711769
92	0x3b3d0bd1	0.0028846154
93	0x3b37b528	0.0028031562
94	0x3c235488	0.009968884
95	0x3c1fe742	0.009759726
96	0xbaa1a94d	-0.0012333781
97	0xbab8bc9c	-0.0014094296
98	0x3b25744a	0.0025246316
99	0x3b89c10e	0.004203922
100	0xbb8ecdc3	-0.004358025
101	0xbb9091d2	-0.0044119144
102	0x39cf4774	0.00039535353
103	0x39092ddc	0.00013082422
104	0xbab85857	-0.0014064413
105	0xba9ea24a	-0.0012102809
106	0xbabba930	-0.001431739
107	0xbaa6eb44	-0.001273491
108	0x3b637f69	0.0034713394
109	0x3b6b2c4a	0.0035884553
110	0x3b104ee0	0.002201967
111	0x3aacfb98	0.0013197539
112	0xbb8af03c	-0.004240064
113	0xbb92c118	-0.004478585
114	0x3b84b5ca	0.0040499913
115	0xbb06a76e	-0.0020546573
116	0xbab5dbac	-0.0013874671
117	0xbac9249a	-0.0015345991
118	0xbab8cf88	-0.0014099935
119	0xbaa0ea62	-0.0012276883
120	0xbb474864	-0.0030408138
121	0xbb3f0f2f	-0.0029153337
122	0x3986841e	0.00025656907
123	0x3a811748	0.0009848857
124	0x39b420b9	0.00034356656
125	0x37e90942	2.7780075e-05
126	0xba9ce952	-0.001197139
127	0xba695f30	-0.00089024287
128	0xba74affb	-0.00093340845
129	0xbaf76b4c	-0.0018876581
130	0xb91a4c2e	-0.00014714964
131	0x3aafb023	0.0013403933
132	0xbb5efa6b	-0.0034023772
133	0xbb6a1300	-0.0035716891
134	0xbae98ff1	-0.0017819387
135	0xbaf1f4f3	-0.0018459841
136	0xbb00a069	-0.0019626862
137	0xbad124e1	-0.0015956425
138	0x3b02b56e	0.0019944566
139	0x3aedd50f	0.0018145161
140	0x3a8a0b07	0.0010531851
141	0x3acb93ce	0.001553172
142	0x3b4efe86	0.0031584813
143	0x3b138a09	0.0022512695
144	0xbc94e42d	-0.018175209
145	0xbc5ca5c2	-0.013467254
146	0x39f9fe04	0.00047682237
147	0x39dcfcf2	0.0004215013
148	0x3a9d68f7	0.0012009431
149	0x3a2e9f18	0.000666128
150	0x3a9028b9	0.0010998464
151	0xbbbe69e5	-0.0058109635
152	0x3c459f26	0.01206187
153	0x3bda7633	0.0066669225
154	0xbb9b873e	-0.0047463467
155	0xbb742e78	-0.0037259143
156	0x3ba9ba45	0.0051796758
157	0x3b3482eb	0.0027543854
158	0x3c12687b	0.008936043
159	0x3b8f7c9b	0.004378868
160	0x3a55d192	0.00081565336
161	0x3a0bc652	0.0005331981
162	0x3b2890af	0.0025721004
163	0x3aed5f57	0.0018110079
164	0xbb0d05d6	-0.002151837
165	0xbad0eae5	-0.0015939145
166	0xbc9324c8	-0.017961875
167	0xbc23214b	-0.009956668
168	0x3b098edd	0.0020989694
169	0x3ac49b8c	0.001499997
170	0x3a3a49ec	0.0007106352
171	0x3aa66f8c	0.0012698038
172	0x3b7fed1f	0.0039051247
173	0xbb87258b	-0.0041243485
174	0x3b3c28b6	0.002871079
175	0x3b88e2e5	0.0041774386
176	0xbb39419f	-0.0028267873
177	0xba973c93	-0.0011538438
178	0xbb0866bc	-0.0020813188
179	0xbabe5ff1	-0.0014524442
180	0xbab8efc4	-0.0014109542
181	0xba64a853	-0.0008722592
182	0x3b5128d7	0.0031915212
183	0x3b132d5a	0.0022457452
184	0xbb47082b	-0.0030369859
185	0x3b715c26	0.0036828606
186	0xba8c9a90	-0.0010727216
187	0x3b226f6c	0.002478565
188	0x3b159790	0.0022825934
189	0xbb6c90a8	-0.0036096964
190	0xbb4a4ace	-0.003086734
191	0xbb56a0e5	-0.003274971
192	0x3ba10282	0.004913629
193	0x3b5ce10c	0.0033703474
194	0xbb1003d2	-0.0021974933
195	0xbae7366d	-0.0017640122
196	0xbb0ef903	-0.0021815903
197	0xbc4f1de5	-0.012641405
198	0x3ab3b189	0.0013709526
199	0x3a7e32ca	0.0009696899
200	0xbc1c3749	-0.009534665
201	0xbc30fba4	-0.010802183
202	0xbc64786d	-0.013944727
203	0xbb258770	-0.002525773
204	0xbace3cb0	-0.0015734639
205	0xbac1a6d6	-0.0014774452
206	0x399746a6	0.00028853602
207	0xb8df9c3a	-0.00010662568
208	0xbbba35ea	-0.0056826966
209	0x3ab17997	0.0013540265
210	0xbb3793b5	-0.0028011624
211	0xbaf0f1cc	-0.0018382608
212	0xbacddf27	-0.0015706763
213	0xbacbbf81	-0.0015544744
214	0x3c1ac8c5	0.009447281
215	0xbab16407	-0.0013533839
216	0x3bffd013	0.007806787
217	0xba15b4fc	-0.00057108677
218	0xbb6911f0	-0.003556367
219	0xbb0d6f9a	-0.0021581412
220	0x3ba5ca81	0.0050595407
221	0x3bdc1c15	0.006717215
222	0xbbacaa64	-0.0052693356
223	0xbba82e8e	-0.005132503
224	0x39eddd25	0.00045368928
225	0x3a961959	0.0011451646
226	0x3a8511f5	0.0010152446
227	0x3aa8e15b	0.0012884544
228	0x39fff850	0.00048822397
229	0x3a0e6624	0.000543209
230	0x3bfcca37	0.0077145356
231	0x3be65360	0.007028982
232	0xbb850cea	-0.0040603774
233	0x3b10171d	0.0021986433
234	0x3aa6eba8	0.0012735026
235	0x3b360773	0.0027775436
236	0xbb83bc4a	-0.0040202485
237	0xbb079d19	-0.0020693003
238	0x3b93f72c	0.004515549
239	0x3b3d1b26	0.0028855293
240	0x3ad76ac6	0.0016435019
241	0x3b4fd557	0.0031712854
242	0x3b596d35	0.0033176665
243	0x3b631e2c	0.0034655435
244	0x3b685fc0	0.0035457462
245	0x389ef032	7.578767e-05
246	0x3c6de0f7	0.014518968
247	0xbafdebf2	-0.0019372685
248	0xbb0abeff	-0.0021170971
249	0xba4bb7ef	-0.00077712437
250	0xbb4dd900	-0.003140986
251	0xbb5a9939	-0.0033355488
252	0xbb4a92e5	-0.003091031
253	0x38a8940b	8.0384394e-05
254	0x3b5dd742	0.0033850227
255	0x3b085770	0.002080407

base_model.model.model.layers.0.self_attn.v_proj.lora_A.weight f4 [2, 896]
0	0x3cb4e70c	0.022082828
1	0xbc79772f	-0.0152261695
2	0x3c7d65d6	0.015466174
3	0xbc6ed634	-0.014577437
4	0x3ca890d7	0.020576878
5	0x3b74b543	0.0037339486
6	0x3c9c703a	0.019096483
7	0x3ba416ef	0.0050076167
8	0xbaf4e774	-0.0018684701
9	0x3cb0be2e	0.02157506
10	0x3cb4251e	0.021990355
11	0x3ac937cc	0.0015351712
12	0xbca76bc4	-0.020437129
13	0xbc8400d3	-0.016113674
14	0xbc0f10a2	-0.008731993
15	0xbb362d73	-0.0027798086
16	0xbb7a4ba0	-0.0038192049
17	0xbd3449e7	-0.04401579
18	0x3cef90f1	0.029243918
19	0xbcec68fc	-0.028858654
20	0x3c8609b5	0.01636205
21	0x3bbf43b9	0.0058369306
22	0x3d0e458b	0.03473429
23	0xbb4cd94a	-0.0031257444
24	0xbcca00c9	-0.024658578
25	0xbca229aa	-0.019795258
26	0x3ca5856b	0.02020522
27	0xbcf6ab80	-0.030111074
28	0xbb364957	-0.002781471
29	0x3c9a625b	0.018845728
30	0x3cc5f61c	0.024165206
31	0x3cafdb45	0.02146686
32	0x3c4f25e3	0.01264331
33	0x3ba7a12c	0.0051156487
34	0x3d04b747	0.03240135
35	0x3cf300c4	0.029663451
36	0xbcd3cf4f	-0.025855688
37	0xbd14492f	-0.036202606
38	0xbac4aab4	-0.0015004487
39	0x3b2bf681	0.0026239457
40	0xbc015e71	-0.007896052
41	0x3c5db432	0.013531731
42	0xba9bb651	-0.0011879896
43	0x3c3e7bdf	0.011626213
44	0x3a08d9a3	0.00052204187
45	0x3c585c4a	0.013205597
46	0x3c197608	0.00936652
47	0x3c7ce129	0.015434542
48	0xba33f7d9	-0.000686524
49	0xbbc20ae1	-0.005921707
50	0x3c725d8a	0.014792809
51	0xbbb81a51	-0.0056183715
52	0xbc5b4d8c	-0.013385188
53	0xbc3f2977	-0.011667601
54	0x3d05f2c1	0.03270221
55	0x3bd102b1	0.0063784947
56	0x3ca19483	0.019724136
57	0x3c1794a3	0.009251746
58	0x3ce65e69	0.02812119
59	0x3cc1fc34	0.02367983
60	0xbb531845	-0.003221051
61	0x3c822760	0.015887916
62	0xbc9241a0	-0.017853558
63	0x3ce9ff4d	0.02856412
64	0xbb8e5cdc	-0.004344566
65	0xbd1c18fb	-0.03810976
66	0x3ccd37e5	0.025051067
67	0x3c9efbdf	0.01940721
68	0xbcd3a93d	-0.025837535
69	0x3d00fb40	0.03148961
70	0xbcfee473	-0.031114792
71	0x3ca37820	0.019954741
72	0xbcde5c4d	-0.027143622
73	0xbc140a33	-0.009035635
74	0x3d19cd61	0.03754938
75	0xbd0441be	-0.03228926
76	0x3c5ff0e4	0.013668273
77	0xbd1b80c4	-0.037964597
78	0x3c57c8de	0.013170449
79	0x3c894fb4	0.016761638
80	0xbd073013	-0.03300483
81	0xbd136239	-0.035982344
82	0xbcd19ce8	-0.025587514
83	0x3d1d67df	0.038429137
84	0x3c8834c0	0.016626716
85	0x3c2fd58e	0.010732068
86	0x3d19f801	0.03759003
87	0x3ca3275d	0.01991623
88	0xbb03381e	-0.0020022462
89	0x3c15a794	0.009134192
90	0x3cb37c3a	0.021909822
91	0xbb9ac9e5	-0.0047237747
92	0xbca59587	-0.020212902
93	0xbbf50434	-0.0074773077
94	0x3b417aa9	0.0029522574
95	0xbd00bf38	-0.03143236
96	0xbd264aa8	-0.04059854
97	0x3ccacb3d	0.024755115
98	0xbcce3ad1	-0.02517453
99	0xbcf06255	-0.029343763
100	0xbd36dbaf	-0.0446431
101	0x3c096d64	0.008387897
102	0x3c8c42b5	0.017121652
103	0xbcedcd4f	-0.029028563
104	0x3b97cd28	0.004632611
105	0xbd0f45a7	-0.034978535
106	0xbcc64ef5	-0.024207572
107	0x3cf05e5f	0.029341875
108	0x3c9b2bc9	0.018941777
109	0xbc16feaf	-0.009215995
110	0xbc12c779	-0.008958691
111	0xbd10dff9	-0.035369847
112	0x3cd457e8	0.025920823
113	0x3cc25989	0.023724334
114	0x3c1c9d1f	0.009558945
115	0x3d0a6cf5	0.033795316
116	0xba86ecd4	-0.0010293969
117	0xbc8cbb7e	-0.017179247
118	0xbc2ea6b1	-0.0106598595
119	0xbcc16933	-0.023609733
120	0xbc353be6	-0.011061644
121	0x3b053c6c	0.0020330204
122	0xbcae4f16	-0.021277945
123	0xbd032819	-0.032020662
124	0x3c843bdb	0.016141823
125	0xbc260f4d	-0.010135484
126	0xbbd6458d	-0.006539053
127	0xbcf2c71c	-0.029635958
128	0xbc3848af	-0.011247798
129	0xbc39eafa	-0.011347527
130	0x3ca63383	0.020288235
131	0xbca1fb9f	-0.019773303
132	0xbd10d1a3	-0.035356175
133	0xbccea43d	-0.0252248
134	0xbca68bee	-0.020330396
135	0xbcd8c19b	-0.026459506
136	0xbbeb4d2d	-0.007180831
137	0xbcd5de2a	-0.026106913
138	0xbc98910f	-0.018623857
139	0x3ce88763	0.02838487
140	0xbb7e66e2	-0.0038818647
141	0xbd04cbdd	-0.03242098
142	0x3c267b8d	0.010161293
143	0x3c431759	0.011907422
144	0xbca1a239	-0.019730674
145	0x3bf3960c	0.0074336585
146	0x3bb1b760	0.0054234713
147	0x3c233c22	0.009963067
148	0xbd063309	-0.032763515
149	0xbca45f86	-0.02006508
150	0x3c2eae15	0.010661622
151	0xbbf0c12b	-0.007347246
152	0x3d00b50f	0.03142267
153	0x3b0ce6bc	0.0021499833
154	0x3bab1e1c	0.005222095
155	0xbb0bf41a	-0.0021355213
156	0xbc10529b	-0.008808757
157	0xbc879c61	-0.01655406
158	0x3cb8ed62	0.02257413
159	0x3c815cbc	0.01579129
160	0xbd218806	-0.039436363
161	0x3cef7268	0.029229358
162	0x3cb69398	0.022287175
163	0x3c333a57	0.010939202
164	0xbbb30bad	-0.0054640383
165	0x3c8e9bd5	0.01740829
166	0xbc9d8d3d	-0.019232387
167	0x3b760d86	0.0037544682
168	0x3d1861ec	0.03720276
169	0x3bb483d5	0.0055088797
170	0x3bba8d2b	0.005693098
171	0xbcaa86bb	-0.020816198
172	0x3b030c57	0.0019996369
173	0x3c148779	0.009065502
174	0xbc87f7ca	-0.016597647
175	0x3c97c4e8	0.01852651
176	0xbce3f1f8	-0.02782534
177	0xbc90f4ae	-0.017694797
178	0x3d001a15	0.031274874
179	0x3d070247	0.032961156
180	0xbb91620d	-0.0044367374
181	0x3b026d78	0.0019901674
182	0xbc531ec4	-0.012885753
183	0xbc21011a	-0.009826923
184	0x3b1ee90a	0.0024247789
185	0xbb93c56f	-0.00450962
186	0x3c57ab2c	0.013163369
187	0x3cd4f886	0.025997411
188	0xbc835f0f	-0.016036538
189	0xbcc200fa	-0.023682106
190	0xbcf8c014	-0.030365027
191	0x3bd2d96c	0.00643461
192	0x3cced7e3	0.025249427
193	0x3cd34138	0.025787935
194	0xbcdc67e2	-0.026905004
195	0x3c80ea4f	0.015736727
196	0xbc6a61b2	-0.014305519
197	0xbd0cc0d3	-0.03436358
198	0xbc38fca8	-0.011290707
199	0x3c204d77	0.009784094
200	0x3b0793fc	0.002068757
201	0x3b85172e	0.004061601
202	0xbcb926fa	-0.022601593
203	0xbc002fd9	-0.007823908
204	0xbcc8517b	-0.024452915
205	0xbb342800	-0.0027489662
206	0xbd26b9b6	-0.04070445
207	0x3b225727	0.0024771185
208	0x3c1b7bc2	0.009489955
209	0xbc844437	-0.016145809
210	0xbcde291b	-0.02711921
211	0x3c8f454d	0.0174891
212	0xbbfdeb6b	-0.0077490113
213	0xbc1461ea	-0.009056548
214	0x3cb5748f	0.022150306
215	0xbcc390a0	-0.023872674
216	0x3be3d238	0.0069525503
217	0x3b5d6c5c	0.003378651
218	0x3c87eff2	0.016593907
219	0x3bd8c227	0.0066149416
220	0x3cdceff4	0.026969887
221	0x3a946060	0.0011320226
222	0xba981525	-0.0011602981
223	0x3cc8acbe	0.024496432
224	0xbcc82fae	-0.024436798
225	0x3cc50f44	0.02405513
226	0xbc837451	-0.016046675
227	0x3be11a45	0.0068695867
228	0x3cd52a76	0.026021224
229	0x3d23668f	0.03989273
230	0xbcce8a17	-0.02521233
231	0x3d0e2579	0.034703705
232	0x3bef9731	0.0073117246
233	0xbca53659	-0.020167517
234	0xba0f43e7	-0.00054651353
235	0xb9eb4dcf	-0.00044880665
236	0xbc041818	-0.008062385
237	0xbb55c3be	-0.0032617892
238	0x3ce299a2	0.027661148
239	0xbcb0f589	-0.021601455
240	0xbcfb0b67	-0.030645085
241	0x3c250d44	0.010073964
242	0x3c595a37	0.013266138
243	0xbc649745	-0.013952081
244	0xbc5816c0	-0.013189018
245	0xbbb7d7ff	-0.0056104655
246	0x3c963fff	0.018341063
247	0xbc90dd89	-0.017683761
248	0x3d065f53	0.032805752
249	0x3d032c6c	0.032024786
250	0xbbe40ab2	-0.006959283
251	0x3c7bcf69	0.015369275
252	0x3b35b548	0.002772646
253	0xbccaa719	-0.024737881
254	0xbce64259	-0.028107809
255	0x3c2d22eb	0.010567407

base_model.model.model.layers.0.self_attn.v_proj.lora_B.weight f4 [128, 2]
0	0x3c3ed506	0.011647468
1	0x3a5fabde	0.0008532385
2	0x3c8ef3fa	0.017450321
3	0xbc80ca2e	-0.015721407
4	0xbba5fed0	-0.0050657764
5	0x3a208da4	0.0006124622
6	0xbc3fbf38	-0.011703305
7	0x3c2c3ef9	0.010513061
8	0xbc45b4ed	-0.012067062
9	0x3c4c9c28	0.012488402
10	0xbc1f8098	-0.009735249
11	0x3c20451a	0.0097821
12	0x3b49af3c	0.0030774614
13	0xbb460584	-0.003021569
14	0xbacb2ed3	-0.0015501626
15	0x3b17921d	0.0023127862
16	0x3c392b69	0.011301854
17	0xbb72ed75	-0.0037067805
18	0x3bb6ea9b	0.0055821664
19	0xbbefd6da	-0.0073193135
20	0xbc2a3256	-0.010387978
21	0x3c1c0b9a	0.00952425
22	0x3c1c841b	0.009552981
23	0xbad62a4f	-0.0016339513
24	0x3a21a151	0.00061657006
25	0xbaa40cfb	-0.0012516076
26	0xbbdc7149	-0.006727372
27	0x3c9331e8	0.017968133
28	0x3b26e83e	0.0025468017
29	0x3a07cd66	0.0005180448
30	0xbc09f68a	-0.008420596
31	0x3c2a1b9e	0.010382561
32	0xbbd4b1e3	-0.0064909323
33	0x3c240a8c	0.01001228
34	0x3c0d6ae5	0.008631443
35	0x3a82c306	0.0009976334
36	0x39c254c3	0.00037065716
37	0xbad09e6b	-0.0015916353
38	0xbc5a2c97	-0.013316295
39	0x3b5573c3	0.003257022
40	0x3ad88654	0.0016519525
41	0xbae2ae38	-0.0017294353
42	0x3c3f49d4	0.011675317
43	0xbc3e49e0	-0.011614293
44	0xbc45c26d	-0.0120702805
45	0x3c4d14b5	0.012517144
46	0x3aa5dbc3	0.0012653995
47	0xbaf401c7	-0.0018616252
48	0xbb9520f2	-0.0045510465
49	0x3bc0d689	0.0058849496
50	0xbab51720	-0.0013816096
51	0xbbc699fe	-0.006060838
52	0xba801684	-0.0009772335
53	0x3b758a96	0.0037466637
54	0xbb176590	-0.0023101307
55	0x3aad0049	0.0013198938
56	0xba79496d	-0.00095095375
57	0x39865f43	0.00025629447
58	0xbc321253	-0.010868627
59	0xba1eedf5	-0.000606268
60	0xbbb7cb93	-0.0056089847
61	0x3c42b0c8	0.011882968
62	0x3c811870	0.015758723
63	0xbc89a5bd	-0.016802663
64	0xbbe1c742	-0.0068902085
65	0x3bb0ec18	0.0053992383
66	0x3abdcba3	0.0014480244
67	0xbb1a90f5	-0.0023584936
68	0x39e749c0	0.000441147
69	0x3b4cb534	0.0031235935
70	0x3aebee5d	0.0018000115
71	0xbb0b690f	-0.0021272337
72	0xbb0ce33b	-0.0021497745
73	0x3b32f4b1	0.0027306492
74	0x3b605218	0.003422862
75	0xbac819d8	-0.0015266491
76	0xbb48dd22	-0.0030649384
77	0x3b6740c0	0.0035286397
78	0x3c177740	0.00924474
79	0xbb91c614	-0.0044486616
80	0xbbcf539b	-0.006327105
81	0x39f92227	0.00047518426
82	0x3c2c349c	0.01051059
83	0xbae4f5a4	-0.0017468226
84	0xbbb15260	-0.005411431
85	0xbb46f0fe	-0.0030356045
86	0xba064e47	-0.00051233586
87	0x3707faa8	8.1049875e-06
88	0xbbfed00f	-0.0077762674
89	0x3c1aebc2	0.009455623
90	0x3c5f69fa	0.013636107
91	0xbc11f878	-0.008909337
92	0x3b6d577b	0.0036215473
93	0x3b5f47b9	0.003406985
94	0x38bdd3c8	9.0516696e-05
95	0x3b66bf64	0.0035209293
96	0x3a361cb6	0.0006947027
97	0x38c8d824	9.5770025e-05
98	0x3b5984ae	0.0033190656
99	0xbb6d9a83	-0.0036255426
100	0x3c66f39c	0.014096167
101	0xbc6357dd	-0.013875929
102	0x3c185775	0.009298195
103	0xbc388d92	-0.011264222
104	0xbc630cbe	-0.013858018
105	0x3bbfcc99	0.0058532474
106	0x3a3a91c1	0.0007117056
107	0xba915c0e	-0.0011090057
108	0xbc6d9337	-0.014500431
109	0x3c30064e	0.010743691
110	0x3c85a365	0.016313264
111	0xbc4c9b42	-0.012488188
112	0xba9dda97	-0.0012043294
113	0x3ad5ee21	0.0016321578
114	0x3c00853c	0.007844266
115	0xbc2cf600	-0.010556698
116	0x3b9df134	0.0048200134
117	0x3b23819b	0.0024949077
118	0xbc143bca	-0.009047458
119	0x3c795029	0.015216866
120	0xbbf5d24e	-0.007501877
121	0x3bf39954	0.0074340496
122	0x3c18339f	0.009289651
123	0xbb2cfb23	-0.0026394806
124	0xba659fa6	-0.0008759446
125	0xbbba1f59	-0.0056800065
126	0xba3add31	-0.0007128297
127	0xba6dba30	-0.00090685766
128	0xba501fea	-0.0007939326
129	0x3af647bf	0.0018789693
130	0x3b422aa6	0.0029627471
131	0x3baf0e43	0.0053422763
132	0xbc04755b	-0.00808462
133	0x3c0700d4	0.0082399435
134	0x3b0932fe	0.0020934935
135	0xbb679741	-0.0035337957
136	0x3a933cd2	0.0011233336
137	0x3bff8088	0.0077973045
138	0x3c2a28ba	0.0103856865
139	0xbc1d4843	-0.009599748
140	0x399aed62	0.00029550033
141	0xbacc06b7	-0.0015565966
142	0xbbe24114	-0.0069047306
143	0xbc287518	-0.010281824
144	0xbc193985	-0.009352093
145	0x3c2bda74	0.010489095
146	0x3c0ca228	0.008583583
147	0xbbc5f0f4	-0.0060406867
148	0xbc363a54	-0.011122305
149	0x37a3fba8	1.95483e-05
150	0xbc3be7af	-0.011468812
151	0x3c2f84fa	0.010712856
152	0xbb553ac4	-0.0032536248
153	0x3bb48f4c	0.0055102464
154	0x395a9a2f	0.00020847538
155	0xb634e312	-2.6954262e-06
156	0x3b230a1c	0.0024877852
157	0x3bf80de9	0.0075700176
158	0x3bef1207	0.00729585
159	0xbbbe9853	-0.0058164983
160	0xbc6c20b9	-0.014412099
161	0x3c623bbe	0.013808189
162	0x3c42649d	0.011864808
163	0xbc2b8125	-0.010467802
164	0x3a614afe	0.00085942436
165	0x3a1756cb	0.0005773126
166	0xbab79af0	-0.0014007967
167	0x3851f80c	5.0060495e-05
168	0xbc68823d	-0.0141912075
169	0x3ba94c3e	0.0051665595
170	0xbca90c10	-0.020635635
171	0x3c47c94a	0.012193987
172	0xba688702	-0.00088702154
173	0xba6de5bc	-0.00090750656
174	0x3c916aad	0.017751062
175	0xbc3e8aba	-0.011629755
176	0xbc8571b0	-0.016289562
177	0x3c8a13d6	0.016855162
178	0x3af5a39a	0.0018740774
179	0xba9c49de	-0.001192387
180	0x3a620702	0.000862226
181	0xbc41c6c9	-0.011827179
182	0xbc091e79	-0.008369082
183	0x3c1681bd	0.009186205
184	0xbc0b6541	-0.0085080275
185	0x3be58c36	0.00700524
186	0xbb0a35f4	-0.0021089287
187	0x3adc752c	0.0016819588
188	0xbb6339f5	-0.0034671996
189	0x3b5b7d1a	0.0033491314
190	0xbb1c6777	-0.002386538
191	0xba175886	-0.0005773384
192	0xbc0d08da	-0.008608067
193	0x3c188da0	0.00931111
194	0x3a7a69ad	0.000955249
195	0xbb0ac181	-0.0021172466
196	0xbc4f1011	-0.012638108
197	0x3c328db0	0.010898039
198	0x3ad822c2	0.0016489851
199	0xbae10a5c	-0.0017169225
200	0x3b058f05	0.0020379436
201	0xbb065724	-0.0020498717
202	0x3c3544ee	0.011063797
203	0xbc2975b2	-0.010343002
204	0x3bc02a8a	0.005864446
205	0xbc1fe129	-0.009758272
206	0xbbb0552f	-0.0053812484
207	0x3ba9ebdd	0.005185588
208	0x3b243563	0.0025056235
209	0xbb0beb4e	-0.002134997
210	0xba1ba74a	-0.0005937709
211	0x3c301e8b	0.0107494695
212	0xbbf18511	-0.007370599
213	0x3c2c6880	0.010522962
214	0xbaa164bb	-0.0012313345
215	0x3b27c1e3	0.0025597743
216	0xbbb7d25c	-0.0056097936
217	0x3c64847b	0.013947601
218	0xbc385730	-0.011251256
219	0x3c3bbb70	0.011458263
220	0xb8ec86bb	-0.000112784524
221	0x3c43f8f0	0.011961207
222	0x3c1df253	0.009640294
223	0xbc243e84	-0.0100246705
224	0xbbb6d0a4	-0.005579071
225	0x3c0d84d5	0.008637627
226	0xbc862f62	-0.016380016
227	0x3c85b03f	0.016319392
228	0x3c4b72ed	0.012417537
229	0xbc3eca23	-0.011644873
230	0x3a9a7ad0	0.0011785869
231	0xbbfd1d5b	-0.0077244467
232	0xbbec366c	-0.007208636
233	0x3ba3f59a	0.005003643
234	0xbc8650a7	-0.01639588
235	0x3c8178d6	0.01580469
236	0x3ba75753	0.0051068454
237	0x3bbf2fa9	0.005834539
238	0xbaa57ee7	-0.0012626321
239	0x39c4b32f	0.00037517535
240	0xbc3c7aa4	-0.011503849
241	0x3be087c1	0.0068521206
242	0x3c1e65f6	0.009667864
243	0xbc3c1600	-0.011479855
244	0xb9a12289	-0.00030734044
245	0x3a544ddd	0.0008098761
246	0xba018306	-0.00049404835
247	0x3a1ba6b7	0.0005937623
248	0x3a71c133	0.00092222093
249	0xbbfe8549	-0.0077673537
250	0xbb4d14b8	-0.0031292867
251	0x3b84f7e5	0.0040578716
252	0xba8df927	-0.00108317
253	0xbbfa9304	-0.00764692
254	0xbc350d7d	-0.011050579
255	0x3c2b1b7b	0.010443564

base_model.model.model.layers.1.self_attn.k_proj.lora_A.weight f4 [2, 896]
0	0xbb41b967	-0.0029559971
1	0xbba21905	-0.00494683
2	0x3ca61ea9	0.020278292
3	0xbc8104c4	-0.015749343
4	0x3cb3ef07	0.021964563
5	0x3cfb2ec6	0.030661952
6	0xbc89a499	-0.01680212
7	0xbbf8fb81	-0.007598341
8	0xbcbbbf8b	-0.022918483
9	0xbd2728f9	-0.04081056
10	0x3ca461f1	0.020066233
11	0x3c6aed01	0.014338733
12	0xbd086b9d	-0.033305753
13	0x3c80a0af	0.01570162
14	0x3c68d7da	0.014211619
15	0xbd240d13	-0.04005153
16	0x3d078a2a	0.033090748
17	0x3cfacded	0.030615771
18	0xbd113f3f	-0.035460707
19	0x3bd74f95	0.006570766
20	0x3d18199a	0.03713379
21	0x3b88d06a	0.0041752355
22	0xbbc07544	-0.005873354
23	0xbc9c0380	-0.019044638
24	0xbc4d8999	-0.012545013
25	0xbcd2207c	-0.025650255
26	0x3d1fb4dc	0.03899084
27	0xbb94524c	-0.004526412
28	0x3c89bcf9	0.016813742
29	0x3ca0bb82	0.01962066
30	0x3cff3bb9	0.031156408
31	0xbce3b55b	-0.027796438
32	0xbb050d09	-0.002030196
33	0x3ca41ca7	0.020033194
34	0xbc57ef11	-0.0131795565
35	0xbcc64896	-0.024204534
36	0xbb9ad3eb	-0.0047249696
37	0x3d0d5f87	0.03451493
38	0x3cac880e	0.02106097
39	0xbc704464	-0.014664743
40	0x3d2a3101	0.04155064
41	0xbbf9b69d	-0.007620646
42	0x3bb1221f	0.005405679
43	0xbcf2736b	-0.029596051
44	0x3bf7aec0	0.0075586736
45	0xbd2d4677	-0.04230353
46	0xbc8692d6	-0.016427439
47	0xbb5884f9	-0.0033038242
48	0x3ca3f448	0.020013943
49	0xbce6305f	-0.028099237
50	0xbc9d9ca8	-0.019239739
51	0x3d2726d6	0.04080852
52	0xbd078380	-0.033084393
53	0xbc8db21c	-0.017296843
54	0xbbf4c2b5	-0.0074695
55	0xbcaacf48	-0.020850793
56	0x3d0cdaaf	0.03438824
57	0x3b425f39	0.0029658808
58	0xbc962634	-0.018328764
59	0x3cb95372	0.022622798
60	0xbc89608b	-0.016769668
61	0xbce2a53b	-0.027666679
62	0x3c2878a3	0.010282668
63	0x3cae0edf	0.021247325
64	0xbcebf039	-0.02880107
65	0x3be83bd8	0.007087212
66	0x3cd5d387	0.02610184
67	0x3beb44d2	0.007179835
68	0xbcf56115	-0.029953519
69	0x3ca26ede	0.019828256
70	0x3c2a311d	0.010387686
71	0x3bb4e136	0.0055200113
72	0x3cc92390	0.02455309
73	0x3ce1b0c5	0.02755011
74	0xbd3214ba	-0.043476798
75	0xbc616277	-0.013756386
76	0xbc3eadc9	-0.011638113
77	0x3c8a65b5	0.0168942
78	0x3ca479bc	0.020077579
79	0x3c95ffac	0.01831039
80	0xbcccba8e	-0.0249913
81	0xbbddd4d3	-0.0067697554
82	0x3aee1b7f	0.0018166153
83	0x3c8a46bd	0.016879434
84	0x3d2d0e9b	0.042250257
85	0xbbd4761e	-0.006483807
86	0xbd0aa6bf	-0.033850428
87	0xbbe2f6e7	-0.0069264057
88	0xbb8a1a7e	-0.004214584
89	0xbc5b8015	-0.013397236
90	0x3c1c57cc	0.009542417
91	0x3c514291	0.012772218
92	0xbb683e0e	-0.0035437378
93	0xbcdd94b3	-0.027048444
94	0xbcdb9ba7	-0.02680762
95	0xbc10290c	-0.008798849
96	0xbd2da05f	-0.04238927
97	0xbcbe36d0	-0.023219496
98	0x3cc4b086	0.024009954
99	0x3ce16d97	0.027518077
100	0xbcf3bf47	-0.029754294
101	0x3c405aab	0.011740367
102	0x3c115542	0.008870425
103	0x3cc6a378	0.02424787
104	0x3cf6abc2	0.030111197
105	0xbcb43ab5	-0.02200065
106	0xbd140b28	-0.036143452
107	0x3abec9f6	0.0014556039
108	0x3c6a7327	0.014309681
109	0x3b8a3454	0.004217664
110	0x3c711953	0.01471551
111	0xbb99c451	-0.004692592
112	0x3c55b3c9	0.013043352
113	0xbc5d39bf	-0.013502537
114	0x3b450860	0.0030064806
115	0xbd18c630	-0.03729838
116	0xbcdfc586	-0.027315866
117	0xbbd4dded	-0.006496182
118	0x3afde35e	0.0019370129
119	0xbb55df3c	-0.0032634279
120	0x3c95a0cd	0.018265152
121	0x3b7b4d92	0.0038345796
122	0x3b0e7864	0.002173924
123	0xbcfd887b	-0.030948868
124	0x3953f2b9	0.0002021295
125	0x3cf55f9e	0.02995282
126	0x3be13338	0.006872561
127	0xbcab83a0	-0.020936787
128	0x3c36afb3	0.011150288
129	0x3c33da1a	0.010977292
130	0xbcab8e12	-0.020941768
131	0xbd08fecf	-0.03344613
132	0xbcae2a56	-0.021260422
133	0x3cd5ea35	0.026112655
134	0x3c11c321	0.00889662
135	0x3cddd5f4	0.02707956
136	0x3cd2ff32	0.025756452
137	0xbc5288a8	-0.012849964
138	0x3c5c6395	0.013451477
139	0x3cfb45f1	0.030673
140	0xbd03e1b6	-0.032197677
141	0x3c3a22ea	0.011360863
142	0xbbc1f6c9	-0.0059193117
143	0xbcb0c49e	-0.02157813
144	0xbd08ac0b	-0.033367198
145	0xbc5c85cc	-0.013459634
146	0x3a0fbf97	0.0005483566
147	0x3b962d24	0.004583018
148	0x3b8e9469	0.004351188
149	0x3c699b6c	0.014258247
150	0xbcaab4cc	-0.020838164
151	0xbcc5c84f	-0.024143366
152	0x3cd5fd59	0.026121782
153	0xbc89f2bb	-0.016839376
154	0x3c3afa94	0.011412282
155	0x3be00abd	0.0068372176
156	0x3b299058	0.002587339
157	0x3c5bdbb6	0.013419082
158	0x3a8169e4	0.0009873477
159	0xbd151199	-0.036393736
160	0x3cedbcb5	0.029020647
161	0xbd0c4a86	-0.03425076
162	0x3c8ff0ee	0.017570939
163	0xbb92116a	-0.0044576423
164	0xbcc693b2	-0.024240348
165	0xbbbbb955	-0.0057288804
166	0x3c1c67e5	0.009546255
167	0x3c9736ae	0.01845869
168	0x3c936680	0.017993212
169	0xbcd0901f	-0.025459347
170	0xbd24d4b2	-0.040241905
171	0xbcd85e80	-0.026412249
172	0xbba87139	-0.0051404503
173	0xbbbc1720	-0.0057400614
174	0x3c7bfa92	0.015379565
175	0x3c55cf65	0.013049935
176	0xbcdd0354	-0.026979126
177	0xbca1600e	-0.019699123
178	0xbd043e1e	-0.032285802
179	0x3cf90728	0.03039892
180	0x3cb1ee62	0.021720115
181	0x3c166398	0.009179018
182	0xbc8ce87d	-0.017200703
183	0x3ab50b42	0.0013812559
184	0xbb1971c6	-0.0023413762
185	0xbbc393da	-0.005968553
186	0x3c93407d	0.017975086
187	0xbba2048e	-0.0049443906
188	0x3b810c29	0.003938217
189	0x3c6a70df	0.014309137
190	0xbc4e4c23	-0.012591395
191	0x3d1d4220	0.03839314
192	0x3c599fd8	0.013282739
193	0x38020ae4	3.1004558e-05
194	0x3b6487eb	0.0034871052
195	0xbd2b59b7	-0.041833606
196	0xbb32b9a5	-0.0027271297
197	0xbcbfcf5f	-0.023414312
198	0x3ce49e30	0.02790746
199	0xbccbbeea	-0.024871308
200	0xba82297c	-0.0009930576
201	0x3caee60b	0.021349927
202	0xbb8ee1ad	-0.0043603987
203	0xbd0fbbbf	-0.035091158
204	0xbcb86d75	-0.02251313
205	0xbcdfd250	-0.027321965
206	0x3bb952fd	0.005655645
207	0xbca8b943	-0.020596152
208	0x3d396c8a	0.045269527
209	0xbc4c388c	-0.012464654
210	0x3a1b8fee	0.0005934228
211	0x38976bc7	7.220316e-05
212	0x3caf9d08	0.021437183
213	0x3cbdf735	0.023189167
214	0x3c9c5218	0.019082114
215	0xbcfea851	-0.031086119
216	0x3c608ee0	0.013705939
217	0xbc278323	-0.0102241365
218	0xbc29bd1e	-0.01036003
219	0xbc8acc90	-0.016943246
220	0xbc253f50	-0.010085896
221	0x3c4b3621	0.012403042
222	0xbcede350	-0.029039055
223	0xbc86588f	-0.01639965
224	0xbc4b971e	-0.012426166
225	0xbc8d9ff9	-0.017288195
226	0x3b9b8019	0.004745495
227	0x3c7cd775	0.015432228
228	0x3d1695aa	0.036763825
229	0xbca09504	-0.019602306
230	0x3c7f9fde	0.01560208
231	0xbbdf7b5d	-0.006820126
232	0xbcf56461	-0.029955091
233	0x3bbbb31f	0.00572814
234	0xbc528b3b	-0.012850578
235	0x3c1c8763	0.009553763
236	0xbd026173	-0.031831216
237	0xbcba8f6b	-0.022773465
238	0xbbc3e89d	-0.0059786574
239	0x3b789f36	0.0037936694
240	0x3c28f917	0.010313294
241	0x3cf1eaf0	0.029530972
242	0xbb08d0d3	-0.0020876422
243	0x3c7573f7	0.014981261
244	0x3cc200b7	0.023681981
245	0xbcfbdf3c	-0.030746095
246	0xbc24d6a6	-0.010060942
247	0xbcb884c0	-0.022524238
248	0xbcb51636	-0.022105318
249	0xbcb40cf4	-0.021978833
250	0x3c9d342f	0.019189922
251	0x3bc7c8fb	0.006096957
252	0x3b90010c	0.004394656
253	0x3cc59f84	0.024123915
254	0xbc69e89d	-0.014276651
255	0xbcd7affd	-0.026329035

base_model.model.model.layers.1.self_attn.k_proj.lora_B.weight f4 [128, 2]
0	0x39a7ce25	0.00032006312
1	0xbc3485da	-0.011018241
2	0x3b78cb8a	0.0037963116
3	0x3c0887c7	0.008333153
4	0xb967a23f	-0.00022090318
5	0x3bdb8ff6	0.006700511
6	0x394b6a96	0.00019399295
7	0x3c392cfc	0.011302229
8	0x3c1eb5b6	0.009686878
9	0x3bd532c4	0.006506296
10	0xb9527e40	-0.00020074192
11	0xbc4e2393	-0.012581724
12	0x3c00d697	0.007863662
13	0x3c4becc9	0.012446591
14	0x3b3a6f6e	0.0028447765
15	0xbc418dce	-0.011813594
16	0xbb216495	-0.0024626602
17	0x3b3c3f2d	0.002872418
18	0xbbe06fac	-0.00684925
19	0xbba04df3	-0.004892105
20	0x3c14fdc9	0.00909371
21	0x3c02bd40	0.007979691
22	0x3c0b8856	0.008516392
23	0x3c7667ec	0.015039425
24	0x3ad78cb5	0.0016445132
25	0xbc29115b	-0.010319079
26	0xbb335cda	-0.0027368576
27	0xbc221300	-0.009892225
28	0xbc05650b	-0.008141766
29	0x3c024090	0.007949963
30	0x3c29cf30	0.010364339
31	0x3b442306	0.0029928102
32	0xbc2d1eeb	-0.010566453
33	0xbc346cf3	-0.011012304
34	0x3c65a359	0.014015996
35	0x3c5ca733	0.013467598
36	0xbb9e394c	-0.0048286077
37	0xbae9900a	-0.0017819416
38	0x3b8d1c03	0.004306318
39	0x3987f32b	0.0002593038
40	0x3b24adcd	0.0025128007
41	0x3c592eb9	0.013255768
42	0xbbfa0dd1	-0.0076310416
43	0x3c44de6f	0.012015923
44	0x3b606bec	0.0034244014
45	0x3b489199	0.003060436
46	0x3c1a22f4	0.009407748
47	0x3b5657de	0.0032706182
48	0x3a0bc290	0.0005331421
49	0x3c33447e	0.010941623
50	0x3b8d360d	0.004309422
51	0x3be46dfc	0.006971119
52	0xbb915edf	-0.0044363583
53	0xbc014b37	-0.007891468
54	0xbbc6ffdb	-0.006072981
55	0x3c15f55e	0.009152738
56	0x3c6cc04b	0.014450143
57	0xbaefd601	-0.0018298031
58	0x3c553883	0.013013962
59	0xb9eda67b	-0.000453282
60	0xbc25fd9f	-0.010131269
61	0x3c50dd79	0.012748116
62	0xbb0f4304	-0.0021860013
63	0xb883e475	-6.28912e-05
64	0x3b90407b	0.004402218
65	0xbb5ccbba	-0.0033690766
66	0x3a43af5d	0.0007464791
67	0xbc2bd1d1	-0.010487036
68	0x3aca5382	0.0015436264
69	0xbc2932ce	-0.010327054
70	0x3b3bb244	0.002864019
71	0x3c1fe1a9	0.009758391
72	0xbb1693df	-0.0022976322
73	0xbc2e1bf4	-0.010626782
74	0x3c0d68ac	0.008630913
75	0xbb9bef65	-0.0047587627
76	0x38b18b77	8.465995e-05
77	0xbc095adb	-0.008383478
78	0xbb8e9823	-0.004351632
79	0xbae2dbda	-0.0017307953
80	0x3bd75484	0.0065713543
81	0x3c226f6a	0.0099142585
82	0xbb75f3c7	-0.0037529336
83	0x3c70ff1c	0.01470926
84	0x3bd0c639	0.006371286
85	0x3c267e7e	0.010161994
86	0x3b3014e5	0.0026867923
87	0xbbaae5b2	-0.00521537
88	0xbc0f1283	-0.008732441
89	0xbb3937bb	-0.0028261978
90	0x3bc02ea5	0.0058649355
91	0x3a9d5cf5	0.0012005853
92	0x3c28c983	0.01030195
93	0x3b30e3d3	0.0026991263
94	0xb9452f4c	-0.00018805003
95	0xbc0d6d51	-0.00863202
96	0xba92126e	-0.0011144408
97	0xbc323518	-0.010876916
98	0x39c4f39c	0.00037565536
99	0xbc1973fe	-0.009366034
100	0xbb903d70	-0.004401855
101	0xbb543dde	-0.0032385509
102	0x3b32747b	0.0027230072
103	0x3add0c98	0.0016864715
104	0x3b90a38b	0.004414027
105	0xbc35be5b	-0.011092748
106	0xb8cd0ba2	-9.7773285e-05
107	0xbc4fc114	-0.012680311
108	0xbc49efac	-0.012325209
109	0xbb504714	-0.0031780647
110	0xbb4b94f9	-0.0031064136
111	0xbc60e105	-0.013725524
112	0xbb9d4232	-0.004799151
113	0x3a8640f8	0.0010242751
114	0x397b8040	0.00023985002
115	0x3c3a8f37	0.011386684
116	0xbc40eda6	-0.01177541
117	0xbba2d6de	-0.004969462
118	0x3a5dddc5	0.0008463527
119	0xbc241962	-0.010015817
120	0xbc1aeb01	-0.009455443
121	0xbaa569c1	-0.0012620018
122	0xbb5d57db	-0.003377429
123	0x3bb998ab	0.0056639514
124	0x3aea1c1d	0.0017861162
125	0x3bd95236	0.0066321148
126	0x3ab488e6	0.0013773709
127	0x3c27ea48	0.010248728
128	0x3ba1bf51	0.004936137
129	0xbc7ab69e	-0.015302328
130	0x3b9a1b05	0.004702928
131	0xbbc46553	-0.005993524
132	0x3c28ccf0	0.010302767
133	0xbc69c47c	-0.014268037
134	0x3bd177e9	0.006392468
135	0xbb4cf946	-0.0031276508
136	0xbc4e2fd4	-0.012584645
137	0x3c48bdf3	0.012252319
138	0x3c0db42f	0.008648916
139	0x39edc12b	0.00045348084
140	0x3c1ec9c3	0.009691658
141	0xbc82c870	-0.015964717
142	0xbb81dff0	-0.003963463
143	0x3b8fc850	0.004387893
144	0xbb0714e8	-0.0020611826
145	0xba0dbe6d	-0.0005407099
146	0xbac0d51e	-0.0014711951
147	0xbc2674b4	-0.01015966
148	0xbc412f89	-0.011791118
149	0x3bebd287	0.0071967277
150	0xbc5ba32b	-0.0134056015
151	0x3bb08b28	0.0053876825
152	0x3b6f0d97	0.0036476606
153	0xbaecb62d	-0.0018059664
154	0x3bd24fe0	0.0064182132
155	0xbbe4df01	-0.006984592
156	0xbc1cabb8	-0.009562425
157	0x3b80d224	0.0039313007
158	0xbad2c4b9	-0.0016080356
159	0xbb4b60a9	-0.0031032956
160	0x3b245998	0.0025077816
161	0x3b55ca9e	0.003262199
162	0xbb0e1b11	-0.0021683613
163	0x3b2f62e6	0.002676183
164	0xbbcd9e69	-0.0062749875
165	0x3c04cb4f	0.008105113
166	0x3c69ee43	0.014277997
167	0x3c3dfb6b	0.011595587
168	0xbb70ba81	-0.0036732259
169	0xbba6c7ca	-0.0050897347
170	0xbab4f4b5	-0.0013805839
171	0x3c28aae3	0.010294649
172	0x3a9f8de9	0.001217303
173	0x3a4491df	0.0007498543
174	0x3b13a9a3	0.0022531531
175	0x39e1d8d6	0.000430769
176	0x3b7caa9c	0.003855384
177	0xbb991dee	-0.0046727573
178	0xbc1f4a8f	-0.009722366
179	0xba4c6cf6	-0.0007798219
180	0x3bd3af99	0.006460142
181	0xbae0db2f	-0.0017155166
182	0x3b3c65dc	0.0028747236
183	0xbb6dac00	-0.003626585
184	0xbc558f27	-0.013034618
185	0x3c9527fb	0.01820754
186	0x3be6c410	0.0070424154
187	0xbc8b8ce5	-0.017034957
188	0x3ac8678a	0.0015289646
189	0xba9b76e9	-0.0011861
190	0xbbb93050	-0.0056515113
191	0x3b2d161d	0.0026410886
192	0xbb9488ba	-0.0045329006
193	0xbc19805d	-0.009368983
194	0x3c2057e1	0.009786577
195	0xbc82f0b4	-0.015983917
196	0x3c19fbac	0.009398382
197	0xbc4c6a05	-0.012476449
198	0x3c32baf5	0.010908832
199	0xbc6adc30	-0.014334723
200	0x3c410ce7	0.011782861
201	0xbc091708	-0.0083673075
202	0xb7ad9890	-2.069425e-05
203	0xbbf45c07	-0.0074572596
204	0x3c4120b8	0.011787586
205	0x3b3b7923	0.0028606139
206	0x3b937a28	0.004500646
207	0xbc1e4af1	-0.009661422
208	0x3c33ff0a	0.010986099
209	0xbbdc2987	-0.0067188176
210	0xbbf40546	-0.0074469177
211	0x3c0aa013	0.008461016
212	0xbc1b078c	-0.0094622485
213	0xbbf7dea3	-0.007564382
214	0xbb12fae0	-0.0022427365
215	0xbb820650	-0.0039680377
216	0xbc25e881	-0.010126234
217	0x3bd1a908	0.006398324
218	0xb89f4902	-7.5953096e-05
219	0xbbac8559	-0.0052649197
220	0xbb2a387a	-0.0025973604
221	0x3b59c54a	0.0033229166
222	0xbc3a1e0d	-0.011359704
223	0x3c183fe4	0.009292576
224	0xbc131788	-0.008977778
225	0xbb593c31	-0.003314745
226	0xbb9bc090	-0.00475318
227	0x3b623818	0.0034518298
228	0xbbe831e4	-0.0070860256
229	0x3be35e40	0.0069387257
230	0xbc5f699f	-0.013636022
231	0x3c57d683	0.013173702
232	0x3c28f920	0.010313302
233	0xbb6c8770	-0.003609147
234	0x3b47b684	0.0030473778
235	0xb891c619	-6.951037e-05
236	0xbb875fff	-0.0041313167
237	0x3c7bc5a5	0.015366946
238	0xbb2d85fa	-0.0026477561
239	0xb9a77bea	-0.00031945045
240	0xbb9ed5e8	-0.004847277
241	0x3c4af4e8	0.012387492
242	0xbb5bbba9	-0.0033528602
243	0xb64db36a	-3.0651813e-06
244	0x3c428b52	0.011874037
245	0xbb598285	-0.0033189368
246	0x3b3d55de	0.0028890292
247	0xbb05ac32	-0.0020396826
248	0x3a8daa7f	0.0010808258
249	0xbacfdbb8	-0.0015858328
250	0xbc01e605	-0.007928376
251	0x3affee30	0.0019525941
252	0x3bbef35f	0.005827352
253	0xbb600880	-0.0034184754
254	0x3ae40831	0.0017397461
255	0xbaef5fbb	-0.0018262783

base_model.model.model.layers.1.self_attn.v_proj.lora_A.weight f4 [2, 896]
0	0xb923588b	-0.00015577876
1	0xbbe10140	-0.006866604
2	0xbb4eed13	-0.0031574413
3	0x3cbe7b60	0.02325219
4	0x3cd695a0	0.026194394
5	0x3c45a207	0.012062556
6	0xbcdb64a3	-0.026781386
7	0x3b3f68d9	0.0029206781
8	0x3bf77b78	0.0075525604
9	0x3cc2b155	0.0237662
10	0x3c8e571a	0.017375518
11	0xbc5e271b	-0.013559128
12	0xbc13c23c	-0.009018477
13	0x3c25bd48	0.010115929
14	0xbd06ca9b	-0.032908063
15	0xbc748fa5	-0.014926826
16	0x3c793f6a	0.015212873
17	0x3c3ce64a	0.011529515
18	0xbd006c1f	-0.031353112
19	0xbca65be6	-0.020307492
20	0xbcb36813	-0.021900212
21	0x3b7e7c23	0.0038831315
22	0xbca67e0a	-0.020323772
23	0x3c38aa14	0.011271019
24	0xbd0c9625	-0.034322876
25	0x3cd9cfd7	0.026588364
26	0xbaf98795	-0.0019037599
27	0x3cb0a56b	0.021563252
28	0xbc47ab79	-0.012186878
29	0xbc7d022b	-0.015442411
30	0x3c9b5fc1	0.018966557
31	0xbcd0260c	-0.025408767
32	0xbc03b211	-0.00803806
33	0xbc991fef	-0.018691985
34	0xbc428b7d	-0.011874077
35	0xbd011554	-0.03151448
36	0xbd0ff1d9	-0.035142753
37	0x3cfa9b7f	0.030591724
38	0x3a8ca4a0	0.0010730214
39	0x3b88501c	0.0041599404
40	0xbcad4db4	-0.021155216
41	0xbd114aea	-0.035471834
42	0x3d0d88fe	0.034554474
43	0xbce08da6	-0.027411293
44	0xbc870e83	-0.016486412
45	0x3cc6344e	0.024194863
46	0xbc1057ba	-0.008809978
47	0xbc4405fd	-0.011964318
48	0xbbecd7c3	-0.0072278692
49	0xbc51a15c	-0.012794819
50	0x3c029ddd	0.007972208
51	0xbc26fdbf	-0.010192334
52	0xbc9e9717	-0.019359155
53	0x3ca87a12	0.02056602
54	0xbc08f018	-0.008358024
55	0xbc920b42	-0.017827634
56	0x3c7b7e04	0.015349869
57	0xba2f7fd4	-0.0006694768
58	0x3cd55feb	0.026046714
59	0xbc6ce735	-0.014459421
60	0x3cc633d8	0.024194643
61	0x3cc86dbc	0.024466388
62	0xbcf7d758	-0.030254051
63	0x3cc72fcc	0.024314784
64	0x3b9dbf40	0.0048140585
65	0xbcd62eee	-0.026145425
66	0x3cb7f88b	0.022457382
67	0x3c94affb	0.01815032
68	0x3ce35bd8	0.027753755
69	0xbcd3fbd6	-0.02587692
70	0xbcfd5213	-0.030922925
71	0x3c883e50	0.016631275
72	0xbbead8c4	-0.0071669538
73	0xbc473955	-0.012159665
74	0x3bc1f878	0.0059195124
75	0x3cfe39ef	0.031033484
76	0x3cb8ceac	0.022559486
77	0x3ce82935	0.028339962
78	0x3d437743	0.04772116
79	0x3cdb6894	0.026783265
80	0x3c8c32f1	0.017114135
81	0xba5a4afd	-0.0008327214
82	0x3d19111c	0.037369832
83	0x3ccef366	0.025262546
84	0x3b886b27	0.004163164
85	0xbce21398	-0.027597234
86	0x3d28f7ed	0.041252065
87	0xbb451830	-0.0030074231
88	0xbd2a5692	-0.041586466
89	0x3d1b89fc	0.03797339
90	0x3d2918db	0.04128347
91	0xbcc1d080	-0.02365899
92	0xbb8a293c	-0.0042163413
93	0x3c2fa24e	0.010719849
94	0x3d14ec79	0.03635833
95	0xbc2b7386	-0.010464555
96	0xbc5deefa	-0.013545746
97	0x3d03daa7	0.032190945
98	0xbccf6156	-0.025314968
99	0x3c91a218	0.017777488
100	0xbc917867	-0.017757608
101	0xbb0ecd1d	-0.0021789738
102	0x3beaa088	0.00716025
103	0x3d1d6ca0	0.03843367
104	0xbc8e3f39	-0.017364131
105	0x3c61a813	0.013772982
106	0xbc9b8604	-0.018984802
107	0xbb8f56a7	-0.0043743434
108	0x3b8c3209	0.0042784256
109	0xbd0db899	-0.034599874
110	0xbc194d6e	-0.00935684
111	0xbd032b59	-0.03202376
112	0x3cfc69e6	0.030812215
113	0xbc3e5e73	-0.011619198
114	0xbc8836cf	-0.016627697
115	0xbd02e06b	-0.031952303
116	0x3d138890	0.036018908
117	0x3ca89ff5	0.020584086
118	0x3d07ac17	0.033123102
119	0x3d1a2c1a	0.037639715
120	0x3be25b5c	0.0069078635
121	0x3c01d595	0.007924457
122	0xbce8d558	-0.028422043
123	0xbca06edd	-0.019584114
124	0xbc6d2c22	-0.014475854
125	0xbc2fbd9d	-0.01072636
126	0x3c462735	0.012094309
127	0xbc0c1aa4	-0.0085512735
128	0x3c6b75ef	0.014371379
129	0xbcaf046c	-0.021364413
130	0xbb7007f4	-0.0036625834
131	0x3a2c9c94	0.0006584611
132	0x3be27f71	0.006912165
133	0x3c7371f7	0.014858714
134	0xbcd088ed	-0.025455916
135	0x3c246398	0.010033511
136	0xbb957ef5	-0.0045622536
137	0x3bf69635	0.0075252303
138	0x3ca6ff1a	0.020385314
139	0xbc6eb23b	-0.014568861
140	0x3c61ae1c	0.013774421
141	0xbcf5dc08	-0.030012146
142	0xba54750e	-0.0008104601
143	0xbc8f66ef	-0.017505137
144	0x3c599500	0.013280153
145	0xba98f4b7	-0.001166961
146	0x3c6c2e8a	0.014415393
147	0x3cc7eccb	0.024404904
148	0xbcf35521	-0.029703679
149	0xbcaca8f5	-0.021076659
150	0x3c4ae3d0	0.012383416
151	0x3b9e69c7	0.004834387
152	0x3bfa9294	0.007646868
153	0x3cc7b5fb	0.024378767
154	0x3c527dff	0.012847423
155	0xbcebd964	-0.028790183
156	0x3c719894	0.01474585
157	0x3b4ad65a	0.0030950517
158	0xbcbb9fb4	-0.0229033
159	0xbbee51b2	-0.0072729224
160	0x3c9c1ccb	0.019056698
161	0x3c2a56a0	0.01039663
162	0xbb5a5b64	-0.0033318633
163	0x3c568b8a	0.013094792
164	0xbcec4802	-0.02884293
165	0xbb187d1e	-0.0023267935
166	0xbcb1437f	-0.02163863
167	0x3ca846c8	0.020541564
168	0x3cafd2a4	0.021462746
169	0x3c8cab25	0.017171452
170	0xbc844860	-0.016147792
171	0xbb973891	-0.0046148975
172	0xbcbfa572	-0.02339432
173	0xbd00bdf4	-0.031431153
174	0x3cdb7b4b	0.02679219
175	0x3ca0b4db	0.019617489
176	0x3c12a9e5	0.008951639
177	0xbc7e8ce9	-0.015536525
178	0xba289124	-0.0006430319
179	0xbc2db8c7	-0.010603136
180	0xbbc9c9d4	-0.006158093
181	0x3d200b4f	0.039073285
182	0x3c67bad1	0.014143662
183	0x3be54707	0.0069969925
184	0x3b843ec9	0.004035805
185	0xbd2026e0	-0.039099574
186	0xbc2979ae	-0.010343952
187	0xbceb6381	-0.02873397
188	0x3c9a3d60	0.018828094
189	0x3d1dd30c	0.038531348
190	0x3cfe0a50	0.031010777
191	0x3d03bebe	0.032164328
192	0xbc7de194	-0.015495677
193	0x3ab04d7f	0.001345083
194	0x3b7fc4bf	0.0039027182
195	0x39dfdb29	0.00042697162
196	0x3c54ed63	0.0129960505
197	0x3c89f7b2	0.016841743
198	0xbc5b1ca0	-0.013373524
199	0x3c2b0cab	0.010440032
200	0xbb7d4008	-0.0038642902
201	0x3bb31d34	0.005466128
202	0xbc412d16	-0.0117905345
203	0x3bf14a41	0.007363588
204	0x3cac037a	0.020997752
205	0x3bee692d	0.0072757215
206	0xbc82fadb	-0.015988758
207	0xbbf39e44	-0.007434638
208	0x3ce8680a	0.028369922
209	0xbcd4e340	-0.025987267
210	0xbcf36b8e	-0.029714372
211	0xbcedbe48	-0.029021397
212	0x3c655f2e	0.013999743
213	0x3bd569bc	0.0065128487
214	0x3d008a84	0.0313821
215	0xbc7c7cbb	-0.015410597
216	0x3c598e45	0.013278549
217	0x3c661a1e	0.014044313
218	0xbcbfcd1c	-0.023413233
219	0xbca88ee8	-0.020575956
220	0xbc909604	-0.017649658
221	0xbc70344b	-0.014660905
222	0xbc33476e	-0.010942323
223	0xbce2a63d	-0.02766716
224	0xbcb57bbe	-0.022153731
225	0x3c84947b	0.016184082
226	0xb9ea9372	-0.00044741813
227	0xbcab1516	-0.020884078
228	0x3c6aeaae	0.014338179
229	0x3c090ace	0.008364392
230	0xbb0bb9d7	-0.0021320486
231	0x3c6a5df9	0.014304631
232	0xba8c15e7	-0.001068768
233	0x3c478c3a	0.012179429
234	0x3d1fba12	0.03899581
235	0xbc9c83de	-0.019105848
236	0xbce91399	-0.028451728
237	0x3c2f02bd	0.010681805
238	0xbc6c3187	-0.014416105
239	0x3c9fcd34	0.019507028
240	0x3c5b5de1	0.013389082
241	0x3d142cfe	0.03617572
242	0xbc92b1bd	-0.017907018
243	0xbc22c9b4	-0.009935785
244	0x3b1a997e	0.0023590024
245	0xbbd9c658	-0.006645959
246	0x3cd2c8b0	0.02573046
247	0xbbf8558f	-0.0075785588
248	0x3d0104da	0.031498767
249	0x3c230ef5	0.0099522965
250	0x3c878490	0.016542703
251	0x3ae75971	0.0017650557
252	0xbcc2c286	-0.023774397
253	0x3ce93e31	0.028472038
254	0xbce12950	-0.02748552
255	0x3cc33e2e	0.02383336
